TabTransformer_template/network.pt (torch, 739818 bytes, 222 tensors)

embedder.embeddings.0.weight f4 [8, 3]
00000000: 9956 97bf 1409 8dbf 6d02 8cbe eadf 16bf
00000010: f8f6 423f f608 823f a09b e9bc 4095 0dc0
00000020: d516 973e 8237 4dbe 7185 ca3f f7e2 a43e
00000030: 0aa4 00bf b963 9e3f 7bc8 3b3e c7e1 ebbe
00000040: 51f7 10bf e248 193c cb31 1140 fdec aebf
00000050: 413e 48bd d05a d3be 0650 57bf 083a 14c0
-1.1823303 -1.1018395 -0.273456 -0.58935416 0.76158094 1.0158985 -0.02851659 -2.2122345
0.29509607 -0.20040706 1.5821973 0.3220441 -0.50250304 1.2374183 0.18338196 -0.46070692
-0.56627375 0.0093557555 2.2686641 -1.3666073 -0.048887495 -0.41280222 -0.8410648 -2.316042

embedder.embeddings.1.weight f4 [12, 3]
00000000: 5725 6ebf c8e3 8dbf b3a0 8c3f c643 1d3d
00000010: 8993 713f f9e8 99bf bb12 9f3f e543 76be
00000020: f663 8d3f 143e bb3e 287b 31bf 860a 4f3d
00000030: f1e9 3b3e 6316 1cbf 4e6d 1bbf ee04 c53f
00000040: 8ac2 f5be 834d f6bd 1a31 9ebd 6a05 29bf
00000050: ba3b 22bf c9ee d5bc a4a4 0abf edc8 19bf
00000060: 0ca0 813e eb46 0e3f db00 74bf 3b0a e13e
00000070: 91d4 efbf 1ec5 debe bc5a 503f 92fd c93e
00000080: b425 0d3f 9852 e03f 828d c5bf f284 ae3e
-0.93025726 -1.1085138 1.0986542 0.038394712 0.94365746 -1.2024223 1.2427591 -0.24049337
1.1046131 0.365708 -0.69328547 0.050547145 0.1835096 -0.6097166 -0.6071366 1.539213
-0.47999984 -0.12026503 -0.07724209 -0.66023886 -0.63372386 -0.026114838 -0.5415747 -0.60072213
0.2531742 0.5557696 -0.95313805 0.43953118 -1.8736745 -0.43509763 0.8138845 0.3945127
0.55135655 1.7525206 -1.543381 0.34085804

tabnet.initial_bn.weight f4 [12]
00000000: 0000 803f 0000 803f 0000 803f 0000 803f
00000010: 0000 803f 0000 803f 0000 803f 0000 803f
00000020: 0000 803f 0000 803f 0000 803f 0000 803f
1.0 1.0 1.0 1.0 1.0 1.0 1.0 1.0
1.0 1.0 1.0 1.0

tabnet.initial_bn.bias f4 [12]
00000000: 0000 0000 0000 0000 0000 0000 0000 0000
00000010: 0000 0000 0000 0000 0000 0000 0000 0000
00000020: 0000 0000 0000 0000 0000 0000 0000 0000
0.0 0.0 0.0 0.0 0.0 0.0 0.0 0.0
0.0 0.0 0.0 0.0

tabnet.initial_bn.running_mean f4 [12]
00000000: 0000 0000 0000 0000 0000 0000 0000 0000
00000010: 0000 0000 0000 0000 0000 0000 0000 0000
00000020: 0000 0000 0000 0000 0000 0000 0000 0000
0.0 0.0 0.0 0.0 0.0 0.0 0.0 0.0
0.0 0.0 0.0 0.0

tabnet.initial_bn.running_var f4 [12]
00000000: 0000 803f 0000 803f 0000 803f 0000 803f
00000010: 0000 803f 0000 803f 0000 803f 0000 803f
00000020: 0000 803f 0000 803f 0000 803f 0000 803f
1.0 1.0 1.0 1.0 1.0 1.0 1.0 1.0
1.0 1.0 1.0 1.0

tabnet.encoder.initial_bn.weight f4 [12]
00000000: 98fc ac3f 73b8 623f 6020 cf3f 46c7 6a3f
00000010: be02 643f 1234 313f 98fa 9e3f 140e a33f
00000020: 8a4b ba3f 667e 753f 167a a53f 149e 723f
1.3514585 0.885627 1.6181755 0.9171032 0.89066684 0.6922008 1.2420225 1.2738671
1.4554303 0.95895994 1.2927883 0.9477246

tabnet.encoder.initial_bn.bias f4 [12]
00000000: 136a 003f ba33 263e 99e2 84bd 7906 493f
00000010: 3b61 0bbf 3bf3 703e 2ed5 203d e5d1 fdbd
00000020: 4d53 92be 21b0 a8bd cc33 213f dd0f 733e
0.50161856 0.1623067 -0.064885326 0.785255 -0.54445237 0.23530285 0.039265804 -0.1239355
-0.28579178 -0.08236719 0.6296966 0.2373652

tabnet.encoder.initial_bn.running_mean f4 [12]
00000000: 479d 6c3d 8b32 c13e af3f 5c3e b1af e63e
00000010: 937a 513f 7c52 fd3e 9e7f 74bf 7744 14bf
00000020: 782d 213e 0913 af3e 6c80 cebb a4bc 293d
0.05776718 0.37733874 0.21508668 0.45055917 0.8182766 0.49476993 -0.9550723 -0.5791697
0.15740001 0.3419421 -0.00630193 0.041439667

tabnet.encoder.initial_bn.running_var f4 [12]
00000000: e905 803c 82c2 1d3e d34f a73d 0c34 133e
00000010: d7d8 9c3c ea70 d23d ffb7 013e 78d2 603f
00000020: b778 b13e 3a80 063f d623 1a3f 10e2 8b3f
0.015627818 0.1540623 0.08169522 0.14375323 0.019146366 0.10275443 0.12667845 0.8782115
0.3466241 0.5253941 0.6021093 1.0928364

tabnet.encoder.initial_splitter.shared.shared_layers.0.weight f4 [128, 12]
00000000: b0e3 4f3e 465c 69bf 7bc7 743f a35c 243e
00000010: d1dc 18be 2d00 8cbf fcc4 3fbe fab6 6abf
00000020: 00f5 96bf c614 743e ed28 1b3f 9d5d 85bf
00000030: 4514 01bf 5037 5e3f 8d35 6dbf f10b ccbe
00000040: c3cd 903f 6296 a4be 7e6e 573f e395 2a3f
00000050: 8183 9c3f 4f41 d03f 8d8c f3be 7494 c43e
00000060: dc5b ccbf 02aa 493f 0eec ab3f 91fc 3b3f
00000070: c192 793d 3a84 3ebf 84bd 563f da46 c1bf
00000080: a7ac 7b3e 84c1 dd3f 2968 ff3d cd1d adbf
00000090: c408 713f 9266 053f 1f26 f9be 4d31 743e
000000a0: 016f 883e 6732 08c0 0b83 843f bea6 193f
000000b0: 8292 77bf bf9b 173f c83f a1bf 2ffb 453f
000000c0: a602 c8bf c385 44bf d399 9fbe 716f 91bd
000000d0: 4a21 06be 9238 51be ee33 7e3f 8d51 7e3f
000000e0: c2fc 5a3f 9521 013f ee91 22c0 8271 d7bf
000000f0: 6b42 b13f 8830 cbbe 936d 13bf 56ca 1e3e
00000100: 64ef 293f 6149 8abe 4bc6 5b3e 2e8b debd
00000110: 65bd 0b40 7fc2 0bbf 2f55 b5be 0631 b63f
00000120: 273e e93f 7e0e 35bf b3e3 763e abc6 eb3e
00000130: 97c6 1abf 3aa8 61be 3af5 67be 953d 82bf
00000140: c520 15bf 6585 953f b6ad 7d3f ad54 2d3e
00000150: bcd9 32bf 3ee8 523e 3b5a b4be 8937 033f
00000160: 8cbc 20bf 6eb4 9c3f 3ed1 10bf 124d d9be
00000170: 46fd 12be aa0e 62bf 55f2 4ebe 3122 1b3f
00000180: 6d98 7f3e ffb1 cdbe 000a d43f 0dba 7cbf
00000190: f85e a8be c969 ce3d 4b66 fabd 94c5 1b3f
000001a0: 82dd 04be 2e38 433e d51d 21bf 9066 acbf
000001b0: f685 a5bf 9d46 873f 4d70 953e 0e13 953e
000001c0: 7dd3 3940 74b6 833f 2b4b c4bd 1601 1b3e
000001d0: afcc 04be c36f 443f ff40 493f a836 d73e
000001e0: e06b dfbe 05cf 3b3f 2cbe 5e3e 319d 273f
000001f0: 9048 9ebe f954 b3bd 4ee0 023e be0c 7b3f
00000200: cf7b 123f 2b7e a83f ce8c f8be cbe8 20bf
00000210: a151 823e 95ac 5abf 2e6f 44bf 2a6f 1cbf
00000220: d5ca 723e 6705 953e 70e0 133e 4973 a8be
00000230: 616a 433f 1ade b0bf 23dd d1be 80ae 8c3f
00000240: cd77 233f 4910 91be e236 c7be 71f6 123f
00000250: 1ca0 bebd 834c 3b3f 840b 44bf 2bf4 fc3e
00000260: 6adf 30bf cd3f 963e a122 50bf b510 1ebe
00000270: b2cf 4bbf dbf0 523f 0d0b 2dbf 5ceb 1c3f
00000280: 3fd9 af3d 6bc1 2fbf b054 e73f 1a35 64bf
00000290: 4fdb 6abf a591 193f 55a7 83bf 6d68 7abe
000002a0: 5d7e cebf 1bcb be3f d7ee 1cbf 613c b9be
000002b0: fa4d 253f dac0 023f af85 8e3f e847 9c3e
000002c0: b4d0 f3bb 238b 0bbf bc6d 47bf 9573 613f
000002d0: 0793 933e 3fc2 0abf 63bd 00bf cdd9 2f3f
000002e0: 85b7 2ebf 7bbe 373f 9a34 93bc 5f3c 8e3d
000002f0: 970e 0d3e c3d9 2ebf 5af2 043f a4aa 803f
00000300: 3747 163f 755a b1be 0e54 91bf b5a3 8fbf
00000310: e937 8fbe fb1b 8ebf a681 89bc 9f01 1c3e
00000320: 1db1 ce3f 4109 ba3e a68b 213f bc8f 5c3f
00000330: c1b6 953e e66d 8a3e 4d0f debe e76a 2b3f
00000340: 0f5c 233d beaa 5a3f 7415 a03f 0942 0a3f
00000350: 30c3 29be 886b 39be 0245 ffbe 60e9 1dbf
00000360: 416c bbbd 4185 47bf 884c aebf 7439 213f
00000370: 628c 5abe e20f ff3e 22c7 61be 5c60 803f
00000380: 1027 d73c 63c4 903f d14d 67bf 8df7 3e3e
00000390: 7e1a cc3f 5932 dc3d c1da 96bf ad6a 3fbf
000003a0: 33f3 6b3f 8c53 1a3f 415f fb3f 3c9e a53f
000003b0: ef50 8a3d c930 253f 60b7 84bf 68f7 6b3e
000003c0: 04d4 923f 68fd 22bf 8357 413f 2873 203f
000003d0: 2444 793f d58b 41bf a17a 9b3e 09c3 f2be
000003e0: 0b63 04bf 9858 48bf 3046 67bd 328c a53b
000003f0: 8c2f 443e ca6c 123f 9a43 8f3e 2709 a83f
0.203017 -0.91156423 0.95616883 0.16050963 -0.14927985 -1.0937554 -0.18727487 -0.9168545
-1.1793518 0.2383605 0.6060932 -1.0419194 -0.50421554 0.8680315 -0.92659837 -0.3985286
1.1312793 -0.32145983 0.8415297 0.6663496 1.2227632 1.6269931 -0.4756817 0.3839451
-1.5965533 0.78775036 1.3431413 0.7343226 0.06093097 -0.7442051 0.8388293 -1.5099747
0.2457758 1.7324681 0.12471039 -1.352472 0.94154 0.52109635 -0.48661897 0.23846932
0.2664719 -2.1280763 1.0352491 0.60020053 -0.9670793 0.59222025 -1.259759 0.773364
-1.5625808 -0.76766604 -0.31172046 -0.07101334 -0.13098636 -0.20431736 0.9929799 0.99343187
0.8554193 0.5044187 -2.5401568 -1.6831515 1.3848394 -0.39685464 -0.5758907 0.15506873
0.66380906 -0.2700911 0.21462362 -0.1086639 2.1834347 -0.5459365 -0.35416552 1.4233711
1.8222092 -0.7072524 0.24110298 0.4605001 -0.60459274 -0.2203683 -0.2265214 -1.0175043
-0.5825313 1.1681334 0.99093187 0.16926832 -0.69863486 0.20596406 -0.3522509 0.51256615
-0.627877 1.2242563 -0.5656928 -0.42441612 -0.14354429 -0.88303626 -0.2020963 0.60599047
0.2496049 -0.40174863 1.6565552 -0.9872139 -0.32884955 0.10078771 -0.12226542 0.60848355
-0.12975124 0.190644 -0.62936145 -1.34688 -1.2931507 1.0568424 0.2918724 0.291161
2.9035332 1.0290055 -0.0958465 0.15137133 -0.12968706 0.76733035 0.786148 0.42033887
-0.4363699 0.7336276 0.21752232 0.6547423 -0.30914736 -0.087564416 0.12780878 0.9806632
0.57220167 1.3163503 -0.48544925 -0.62855214 0.25452903 -0.8541959 -0.76732147 -0.6110712
0.23710187 0.29105684 0.14441085 -0.32900456 0.76334196 -1.381778 -0.40989026 1.0990753
0.63854676 -0.28332737 -0.3890906 0.5740729 -0.09307882 0.7316362 -0.7658007 0.49405035
-0.690909 0.2934555 -0.8130284 -0.1543606 -0.7961379 0.82398766 -0.6759499 0.6129663
0.08586358 -0.6865451 1.807272 -0.89143527 -0.9174089 0.5998786 -1.0285441 -0.24453898
-1.6132313 1.4905733 -0.6130194 -0.36178878 0.6457211 0.5107552 1.1134547 0.3052361
-0.007440651 -0.5450918 -0.77901816 0.8806699 0.2882311 -0.54202646 -0.5028898 0.6869171
-0.6824878 0.71775025 -0.017969418 0.069451086 0.13775097 -0.6830103 0.519323 1.0052075
0.58702415 -0.34639326 -1.1353776 -1.1221834 -0.27972344 -1.1102289 -0.016785454 0.15234993
1.6147801 0.36335185 0.6310371 0.8615682 0.29240993 0.2703697 -0.4337105 0.66959995
0.039882716 0.8541678 1.2506547 0.5400701 -0.16578364 -0.18107426 -0.49857336 -0.61684227
-0.09151507 -0.77937704 -1.3617105 0.6297829 -0.21342614 0.49816805 -0.2204862 1.0029407
0.026263744 1.1309932 -0.90353113 0.1864912 1.5945585 0.107517906 -1.1785508 -0.7477215
0.9216797 0.6028373 1.9638444 1.2938914 0.06753718 0.64527565 -1.0368462 0.23043597
1.1470952 -0.6366792 0.7552416 0.62675714 0.973696 -0.7560399 0.30366996 -0.47414425
-0.5171363 -0.78260183 -0.05646342 0.005052113 0.19158763 0.5719725 0.27981263 1.3127793

tabnet.encoder.initial_splitter.shared.shared_layers.1.weight f4 [128, 64]
00000000: 82a9 463f 9507 74bf aa5a f4bd 5ee9 403e
00000010: d608 643e d187 373e 0357 1fbe 9f67 313f
00000020: 836f ac3d c8ce cabd 6eb6 ccbe 9d9c 81be
00000030: 00f8 103e 93c7 6ebf f544 e43d 7664 423f
00000040: 9e4a e7bd 7035 f93d 47a7 a23e b07b 82be
00000050: 1f26 613f 3cd3 b3be 33bf 61be 7ba1 063f
00000060: c291 37bf e7b3 5bbf de83 eebe 389e 23bf
00000070: 1ab8 dfbd 5e76 b2bc 5e73 c23c 9aa4 0abd
00000080: 719b 0cbf 9b96 2e3e 0d82 8b3d 1b39 bc3e
00000090: c9dd 583b 6fc0 1d3f 0bf9 e3be 042e 01bc
000000a0: 0a95 a9be 4897 74be b9f6 27be 80ae a53e
000000b0: d7ac 11bf 8e70 cdbe 440d d2bf 2903 58bf
000000c0: 0824 513e 9a30 b53d b1cc a7be 5352 a83b
000000d0: 956d f83d a0dc 0dbf d92c 34bb 05b3 8b3e
000000e0: cdbe 2b3e 7a8d acbe f202 58bf da29 43bf
000000f0: ba38 15be 5063 a0be ff35 543e 7669 66bc
00000100: c86d 65be 0796 093f 3fc7 40bf acc0 403f
00000110: 1953 86be 67da 1b3f 574e b53d d8cb 6e3f
00000120: b533 8b3e 2f92 85bf 78b9 023f acd8 583e
00000130: 9f37 f03d d28e 42bf 5709 2cbf a275 543f
00000140: ca1c 6e3f e1f3 0e3f 1f5a da3e cd4b 6b3f
00000150: 59ea aabe b656 fbbd df53 9cbd a51f 30be
00000160: 421e db3e 837a f83e 8ad8 d7bf d5ae 153e
00000170: 2d3a f53e 5aa3 a93e 5737 67bf e35b 12bf
00000180: 2534 c43e 5432 29be 0f09 823e 9256 523f
00000190: 580d ecbe ca91 c4be ddff aebe dcb6 7a3e
000001a0: 7569 f6be 11c9 443d 90b3 4cbf a13e 1ebe
000001b0: 6c19 00be a78e 86bf c25d c73e 3c9e ab3c
000001c0: d4af e6be 5c69 abbe db6e 3dbe b101 28bf
000001d0: c1d3 2bbf a9b9 54be 607a 36bf a983 97bf
000001e0: cd56 3bbe 5e68 debe 8101 28bf 7e97 d83e
000001f0: be5f 39bf 2157 233e 8fa5 e1bf 169b 06bf
00000200: d999 b13d 005f 6ebe ea52 4d3f 3530 143f
00000210: 686d 4abe 4396 90be eeb1 9dbe 9612 943d
00000220: 381d 87bf 8d01 083f 44a9 333c ca80 433e
00000230: 80d8 323f dac4 92bd 2eae 133f e050 e4be
00000240: ce7c e23e ccb3 f5be b898 d6be 5d68 b2be
00000250: 9f52 63bf fa13 d4be 8cf3 b6bd 9fef 96bf
00000260: 7dc3 9ebf 1a86 6bbe 6779 b53e ac5c ef3c
00000270: 2ed6 48bf 77ca 263f bbf2 37be dd48 00bf
00000280: 969f b13e b4d8 e13e 64ab f13e 45af a8be
00000290: cb59 56bd 37cb edbe f611 8f3e 0676 afbe
000002a0: a77b 8e3b cd7e a0bf 1908 41bf b52e 82be
000002b0: 8e0f 4fbd d082 5c3f 0d9c 6abd 1380 0e3f
000002c0: 9cc3 af3e d06e 44be fdbf bf3d 9fe8 b9bc
000002d0: 221c 713f 56d8 3d3f 4882 b23f 3e46 f33e
000002e0: 0362 89be d4ea f7be 1281 503e ae61 0cbf
000002f0: a441 813e 0ada f03e a8f2 ec3d f2f3 883e
00000300: c4d7 8cbd ef41 763f f9e2 0b3f 69fd 68bf
00000310: 2e61 8f3f 09bd 34bf 4cb1 1abf 46f2 93bc
00000320: 2ab2 323f f08f 0abf d1f9 783f 68b6 a83f
00000330: 309e e1bc 38e9 40bf a3e2 21be c3d8 b1be
00000340: b184 693d d1d7 bf3e 17d9 d73d 78b6 0cbe
00000350: 3330 2ebe d2bb 5cbd e7cc c9bd 1155 00be
00000360: 83eb d43d ce19 ae3e 87dc 89bf 76a6 1f3f
00000370: 4a87 bf3e 9938 423f ba8f bb3e 2ca7 b93d
00000380: eeea a2bd d990 15bf 1245 34bf 78de 6a3e
00000390: bc86 db3d b87c e5bd 31b7 073f 9b35 6fbe
000003a0: 8564 443f cb0e adbe add0 553f b9a8 eabe
000003b0: 2b64 1dbc 5f84 43bf 1b2e 78bf 1191 153f
000003c0: 09af a73e 2282 c3be 2d47 863f 6e18 c8bd
000003d0: e2d1 fc3d 252c 243e 5f58 1cbe 1bc0 82be
000003e0: 531f 7b3d 3feb af3e b2bf 263e 3925 b93e
000003f0: ef95 05bf fc0c 7bbf b19b 593e adda 2e3e
0.776024 -0.9532407 -0.11931355 0.18839023 0.22268996 0.17922904 -0.15560536 0.6929874
0.08419707 -0.09902722 -0.39982933 -0.253148 0.14157104 -0.93273276 0.11145965 0.7593454
-0.11293529 0.121683955 0.31768247 -0.2548499 0.87948793 -0.35122097 -0.22045593 0.5259015
-0.71706784 -0.85821384 -0.46584982 -0.639133 -0.109237865 -0.021784957 0.023736652 -0.033848383
-0.54924685 0.17049639 0.068119146 0.36762318 0.0033091179 0.61621755 -0.44525942 -0.007884506
-0.3312152 -0.23885834 -0.16402711 0.32359695 -0.5690436 -0.40124935 -1.6410298 -0.8437982
0.20423901 0.08847161 -0.32773355 0.005136767 0.12130276 -0.5541477 -0.0027492552 0.2728502
0.16772003 -0.33701688 -0.84379494 -0.76235735 -0.1457242 -0.3132577 0.20723723 -0.01406323
-0.2240516 0.5374455 -0.75304025 0.75293994 -0.26235273 0.6088013 0.08852833 0.9327979
0.27187887 -1.0435237 0.5106425 0.21176404 0.11729359 -0.75999177 -0.6720175 0.82991993
0.9301268 0.5584088 0.42646882 0.9191254 -0.33381918 -0.12272398 -0.07633185 -0.17199571
0.42796522 0.4853097 -1.6862957 0.14617474 0.47895947 0.3313244 -0.90318817 -0.5717146
0.38321033 -0.16523105 0.25397536 0.82163346 -0.4610393 -0.38392478 -0.34179583 0.24483818
-0.48127332 0.048043314 -0.7996149 -0.15453579 -0.12509698 -1.0512284 0.3893872 0.020949475
-0.4505602 -0.3347882 -0.1849932 -0.6562758 -0.67119986 -0.20773949 -0.7128048 -1.1837054
-0.1829483 -0.43439 -0.65627295 0.4230308 -0.72411716 0.15951206 -1.762865 -0.5258039
0.08671922 -0.23278427 0.8020464 0.5788606 -0.19768298 -0.2823964 -0.30799812 0.072301075
-1.0555792 0.53127366 0.010965649 0.19092098 0.698616 -0.07166453 0.5768765 -0.44592953
0.44235843 -0.47988737 -0.4191339 -0.34845248 -0.88797945 -0.4142149 -0.08933172 -1.1791877
-1.2403408 -0.23000374 0.35444185 0.029218994 -0.7845181 0.65152687 -0.17963688 -0.5011118
0.34692067 0.44110644 0.47201073 -0.3294622 -0.052331727 -0.46444103 0.2794339 -0.34269732
0.0043482366 -1.2538697 -0.7540298 -0.2542626 -0.050551943 0.86137104 -0.057277728 0.55664176
0.34328926 -0.19182897 0.09362791 -0.02269393 0.9418355 0.7415823 1.3946009 0.47514528
-0.2683259 -0.48421347 0.20361736 -0.5483655 0.25245392 0.4704135 0.115697205 0.26748616
-0.068770915 0.96194357 0.5464321 -0.91011673 1.1201532 -0.70600945 -0.60426784 -0.01805986
0.69803107 -0.5412588 0.9725619 1.3180666 -0.02754125 -0.75355864 -0.15809111 -0.3473569
0.05701131 0.37469342 0.105394535 -0.13741481 -0.17010574 -0.053890057 -0.09853535 -0.1253245
0.10396483 0.34004062 -1.0770425 0.62363374 0.37407905 0.7586761 0.36633092 0.09065089
-0.079549655 -0.58424145 -0.7041789 0.22936428 0.10719058 -0.11205429 0.530139 -0.23360293
0.7671588 -0.3380035 0.8352154 -0.4583185 -0.009606401 -0.7637386 -0.9694535 0.5842448
0.3275073 -0.3818522 1.0490471 -0.097702846 0.123447195 0.16032465 -0.15268086 -0.2553719
0.06130917 0.34359166 0.16284063 0.3616121 -0.52181906 -0.9806669 0.21250798 0.17075606

tabnet.encoder.initial_splitter.shared.glu_layers.0.fc.weight f4 [128, 12]
00000000: b0e3 4f3e 465c 69bf 7bc7 743f a35c 243e
00000010: d1dc 18be 2d00 8cbf fcc4 3fbe fab6 6abf
00000020: 00f5 96bf c614 743e ed28 1b3f 9d5d 85bf
00000030: 4514 01bf 5037 5e3f 8d35 6dbf f10b ccbe
00000040: c3cd 903f 6296 a4be 7e6e 573f e395 2a3f
00000050: 8183 9c3f 4f41 d03f 8d8c f3be 7494 c43e
00000060: dc5b ccbf 02aa 493f 0eec ab3f 91fc 3b3f
00000070: c192 793d 3a84 3ebf 84bd 563f da46 c1bf
00000080: a7ac 7b3e 84c1 dd3f 2968 ff3d cd1d adbf
00000090: c408 713f 9266 053f 1f26 f9be 4d31 743e
000000a0: 016f 883e 6732 08c0 0b83 843f bea6 193f
000000b0: 8292 77bf bf9b 173f c83f a1bf 2ffb 453f
000000c0: a602 c8bf c385 44bf d399 9fbe 716f 91bd
000000d0: 4a21 06be 9238 51be ee33 7e3f 8d51 7e3f
000000e0: c2fc 5a3f 9521 013f ee91 22c0 8271 d7bf
000000f0: 6b42 b13f 8830 cbbe 936d 13bf 56ca 1e3e
00000100: 64ef 293f 6149 8abe 4bc6 5b3e 2e8b debd
00000110: 65bd 0b40 7fc2 0bbf 2f55 b5be 0631 b63f
00000120: 273e e93f 7e0e 35bf b3e3 763e abc6 eb3e
00000130: 97c6 1abf 3aa8 61be 3af5 67be 953d 82bf
00000140: c520 15bf 6585 953f b6ad 7d3f ad54 2d3e
00000150: bcd9 32bf 3ee8 523e 3b5a b4be 8937 033f
00000160: 8cbc 20bf 6eb4 9c3f 3ed1 10bf 124d d9be
00000170: 46fd 12be aa0e 62bf 55f2 4ebe 3122 1b3f
00000180: 6d98 7f3e ffb1 cdbe 000a d43f 0dba 7cbf
00000190: f85e a8be c969 ce3d 4b66 fabd 94c5 1b3f
000001a0: 82dd 04be 2e38 433e d51d 21bf 9066 acbf
000001b0: f685 a5bf 9d46 873f 4d70 953e 0e13 953e
000001c0: 7dd3 3940 74b6 833f 2b4b c4bd 1601 1b3e
000001d0: afcc 04be c36f 443f ff40 493f a836 d73e
000001e0: e06b dfbe 05cf 3b3f 2cbe 5e3e 319d 273f
000001f0: 9048 9ebe f954 b3bd 4ee0 023e be0c 7b3f
00000200: cf7b 123f 2b7e a83f ce8c f8be cbe8 20bf
00000210: a151 823e 95ac 5abf 2e6f 44bf 2a6f 1cbf
00000220: d5ca 723e 6705 953e 70e0 133e 4973 a8be
00000230: 616a 433f 1ade b0bf 23dd d1be 80ae 8c3f
00000240: cd77 233f 4910 91be e236 c7be 71f6 123f
00000250: 1ca0 bebd 834c 3b3f 840b 44bf 2bf4 fc3e
00000260: 6adf 30bf cd3f 963e a122 50bf b510 1ebe
00000270: b2cf 4bbf dbf0 523f 0d0b 2dbf 5ceb 1c3f
00000280: 3fd9 af3d 6bc1 2fbf b054 e73f 1a35 64bf
00000290: 4fdb 6abf a591 193f 55a7 83bf 6d68 7abe
000002a0: 5d7e cebf 1bcb be3f d7ee 1cbf 613c b9be
000002b0: fa4d 253f dac0 023f af85 8e3f e847 9c3e
000002c0: b4d0 f3bb 238b 0bbf bc6d 47bf 9573 613f
000002d0: 0793 933e 3fc2 0abf 63bd 00bf cdd9 2f3f
000002e0: 85b7 2ebf 7bbe 373f 9a34 93bc 5f3c 8e3d
000002f0: 970e 0d3e c3d9 2ebf 5af2 043f a4aa 803f
00000300: 3747 163f 755a b1be 0e54 91bf b5a3 8fbf
00000310: e937 8fbe fb1b 8ebf a681 89bc 9f01 1c3e
00000320: 1db1 ce3f 4109 ba3e a68b 213f bc8f 5c3f
00000330: c1b6 953e e66d 8a3e 4d0f debe e76a 2b3f
00000340: 0f5c 233d beaa 5a3f 7415 a03f 0942 0a3f
00000350: 30c3 29be 886b 39be 0245 ffbe 60e9 1dbf
00000360: 416c bbbd 4185 47bf 884c aebf 7439 213f
00000370: 628c 5abe e20f ff3e 22c7 61be 5c60 803f
00000380: 1027 d73c 63c4 903f d14d 67bf 8df7 3e3e
00000390: 7e1a cc3f 5932 dc3d c1da 96bf ad6a 3fbf
000003a0: 33f3 6b3f 8c53 1a3f 415f fb3f 3c9e a53f
000003b0: ef50 8a3d c930 253f 60b7 84bf 68f7 6b3e
000003c0: 04d4 923f 68fd 22bf 8357 413f 2873 203f
000003d0: 2444 793f d58b 41bf a17a 9b3e 09c3 f2be
000003e0: 0b63 04bf 9858 48bf 3046 67bd 328c a53b
000003f0: 8c2f 443e ca6c 123f 9a43 8f3e 2709 a83f
0.203017 -0.91156423 0.95616883 0.16050963 -0.14927985 -1.0937554 -0.18727487 -0.9168545
-1.1793518 0.2383605 0.6060932 -1.0419194 -0.50421554 0.8680315 -0.92659837 -0.3985286
1.1312793 -0.32145983 0.8415297 0.6663496 1.2227632 1.6269931 -0.4756817 0.3839451
-1.5965533 0.78775036 1.3431413 0.7343226 0.06093097 -0.7442051 0.8388293 -1.5099747
0.2457758 1.7324681 0.12471039 -1.352472 0.94154 0.52109635 -0.48661897 0.23846932
0.2664719 -2.1280763 1.0352491 0.60020053 -0.9670793 0.59222025 -1.259759 0.773364
-1.5625808 -0.76766604 -0.31172046 -0.07101334 -0.13098636 -0.20431736 0.9929799 0.99343187
0.8554193 0.5044187 -2.5401568 -1.6831515 1.3848394 -0.39685464 -0.5758907 0.15506873
0.66380906 -0.2700911 0.21462362 -0.1086639 2.1834347 -0.5459365 -0.35416552 1.4233711
1.8222092 -0.7072524 0.24110298 0.4605001 -0.60459274 -0.2203683 -0.2265214 -1.0175043
-0.5825313 1.1681334 0.99093187 0.16926832 -0.69863486 0.20596406 -0.3522509 0.51256615
-0.627877 1.2242563 -0.5656928 -0.42441612 -0.14354429 -0.88303626 -0.2020963 0.60599047
0.2496049 -0.40174863 1.6565552 -0.9872139 -0.32884955 0.10078771 -0.12226542 0.60848355
-0.12975124 0.190644 -0.62936145 -1.34688 -1.2931507 1.0568424 0.2918724 0.291161
2.9035332 1.0290055 -0.0958465 0.15137133 -0.12968706 0.76733035 0.786148 0.42033887
-0.4363699 0.7336276 0.21752232 0.6547423 -0.30914736 -0.087564416 0.12780878 0.9806632
0.57220167 1.3163503 -0.48544925 -0.62855214 0.25452903 -0.8541959 -0.76732147 -0.6110712
0.23710187 0.29105684 0.14441085 -0.32900456 0.76334196 -1.381778 -0.40989026 1.0990753
0.63854676 -0.28332737 -0.3890906 0.5740729 -0.09307882 0.7316362 -0.7658007 0.49405035
-0.690909 0.2934555 -0.8130284 -0.1543606 -0.7961379 0.82398766 -0.6759499 0.6129663
0.08586358 -0.6865451 1.807272 -0.89143527 -0.9174089 0.5998786 -1.0285441 -0.24453898
-1.6132313 1.4905733 -0.6130194 -0.36178878 0.6457211 0.5107552 1.1134547 0.3052361
-0.007440651 -0.5450918 -0.77901816 0.8806699 0.2882311 -0.54202646 -0.5028898 0.6869171
-0.6824878 0.71775025 -0.017969418 0.069451086 0.13775097 -0.6830103 0.519323 1.0052075
0.58702415 -0.34639326 -1.1353776 -1.1221834 -0.27972344 -1.1102289 -0.016785454 0.15234993
1.6147801 0.36335185 0.6310371 0.8615682 0.29240993 0.2703697 -0.4337105 0.66959995
0.039882716 0.8541678 1.2506547 0.5400701 -0.16578364 -0.18107426 -0.49857336 -0.61684227
-0.09151507 -0.77937704 -1.3617105 0.6297829 -0.21342614 0.49816805 -0.2204862 1.0029407
0.026263744 1.1309932 -0.90353113 0.1864912 1.5945585 0.107517906 -1.1785508 -0.7477215
0.9216797 0.6028373 1.9638444 1.2938914 0.06753718 0.64527565 -1.0368462 0.23043597
1.1470952 -0.6366792 0.7552416 0.62675714 0.973696 -0.7560399 0.30366996 -0.47414425
-0.5171363 -0.78260183 -0.05646342 0.005052113 0.19158763 0.5719725 0.27981263 1.3127793

tabnet.encoder.initial_splitter.shared.glu_layers.0.bn.bn.weight f4 [128]
00000000: 139a e53f ee1c be3f 31eb a33f 4347 443f
00000010: 262a c33f f088 6f3f c4f9 903f 0127 713f
00000020: 0c21 753f 55a3 a83f 100c 993f 4968 f83e
00000030: bc35 dd3e 23ec b83f 76b6 803f 8038 573f
00000040: 72f0 b63f b1dd 0f3f cd5b b03f 1fd3 a73f
00000050: 47cf 5a3f eda4 a73f 4800 eb3e 6313 c93f
00000060: 4968 343f 90c3 893f dd79 ad3f cd54 943f
00000070: 7e6c 333f 6a37 213f 6f03 6b3f 7b71 3d3f
00000080: 98b9 993f a274 b83f 50f1 473f 312c 9e3f
00000090: 54a7 a33f 9676 943f b3dc 5b3f 423e 863f
000000a0: 5f17 3c3f 0587 613f 0540 c93f f4ae c13f
000000b0: 8b3d 363f 0d28 a73f 34a0 683f 9e06 7e3f
000000c0: 3752 713f 5eca 5e3f 78b1 003f 3c33 df3f
000000d0: efa1 a23f 76f3 563e 3229 c93f 9468 d83f
000000e0: 8f22 4b3f 908d 4d3f 0671 b23f f6c1 993f
000000f0: 4c80 f53d bddf 77be d65e 0040 320a 8a3f
00000100: 3872 c03f 338d b13f c854 c43f 6012 b53f
00000110: 611d ba3f 18f6 273f 1d76 953f 55c8 4b3f
00000120: c740 233f fd74 b83f deed 583f 5da7 0c3f
00000130: 3750 b93f 7726 a03f 4bdc 123f ac25 ba3f
00000140: 032d 353f e085 ea3e 2ed3 213f 9283 7d3f
00000150: ec90 523f 5074 c93f 4fea ad3f 7763 863f
00000160: 1cd7 d83e d2b7 663f c659 a53f b12e 973f
00000170: 1601 353f 22d9 b13f ac35 683f 4f79 343f
00000180: 5666 b53f 9bea c83f 5f34 b13f 21f6 ae3f
00000190: 796e 363f 769c 343f 9c9a 2a3f 3564 8a3f
000001a0: 9dfa b53f f153 2b3f 03e9 f63f 3f2f cb3f
000001b0: b33a 4c3f 167f ab3f ffb0 e13e e8b2 823f
000001c0: 0be3 3b3f d14d 2b3f 765c a73f 424d 793f
000001d0: 60bd b23f 205a 633e 9401 d93f c7c0 953f
000001e0: dd5a ae3f 5bb8 8b3f 8d00 ce3f c199 5b3f
000001f0: 68bc 273f f495 223f 4bb4 1c40 29e7 6a3f
1.7937645 1.4852579 1.280615 0.76671237 1.5247238 0.93568325 1.1326222 0.9420014
0.9575355 1.3174845 1.1956806 0.48517063 0.4320506 1.4447063 1.0055683 0.8407059
1.4292128 0.5619765 1.3778015 1.3111304 0.8547253 1.3097206 0.45898652 1.5709041
0.70471627 1.0762806 1.3552815 1.1588379 0.7008742 0.6297518 0.91802114 0.7400128
1.2009764 1.4410594 0.7810259 1.2357236 1.278544 1.159869 0.85883635 1.048775
0.7347316 0.8809665 1.5722662 1.5131516 0.7118766 1.3059098 0.9086945 0.9922885
0.94266075 0.8702754 0.50270796 1.743751 1.2705668 0.2099131 1.5715697 1.6906915
0.7934961 0.8029413 1.3940742 1.2012317 0.11987361 -0.24206443 2.0057883 1.0784361
1.5034857 1.3871216 1.5338373 1.4146233 1.4540216 0.65609884 1.167667 0.7960256
0.6377072 1.4410702 0.84737957 0.54942876 1.4477605 1.2511739 0.5736739 1.4542747
0.7077181 0.45805264 0.6321286 0.99028885 0.82252383 1.5738621 1.358713 1.0499104
0.42351615 0.9012424 1.2918022 1.1811124 0.7070478 1.3894389 0.90706897 0.704976
1.4171855 1.5696596 1.3844107 1.3668863 0.7126232 0.7055124 0.66642165 1.0811831
1.4217106 0.6692496 1.928986 1.5873793 0.7977707 1.3398159 0.4408035 1.0210848
0.73393315 0.66915613 1.3075092 0.9738351 1.3964043 0.22202349 1.6953607 1.1699456
1.3621479 1.0915636 1.6093918 0.85781485 0.6552186 0.6351006 2.4485042 0.9175897

tabnet.encoder.initial_splitter.shared.glu_layers.0.bn.bn.bias f4 [128]
00000000: 647a 993e f66f cc3e 9b20 85be d8c8 fa3e
00000010: 282d 6c3c d7ba c93d f6b1 bc3e 8457 273e
00000020: 354f dfbb ff15 023f c934 493d 9cf3 563f
00000030: db92 10bf 4e06 913c c83e fa3c 01af d9be
00000040: 5783 58be 235f 06bf 6a82 a13d c9b9 c1be
00000050: f4a8 ae3d 1b52 993e 6693 143f f040 5abe
00000060: d550 253f 6076 1c3e 1597 97bc 8abc 07be
00000070: c3a9 bf3d 08b6 1d3f 5399 66be d87a 61be
00000080: 304b 653e 01b6 c13e d141 803e e8ef c2be
00000090: 8dc1 c8bd 6f0a 0d3e 9d61 15be be75 9b3e
000000a0: 813f 8cbe ef9d 6ebd 064e 4e3f 18c5 b1be
000000b0: 927d a13c cced 0f3e f5a3 13bf 851b 9cbe
000000c0: dec8 433c d95e 8abd e847 3c3e 31e0 883d
000000d0: a184 5f3e bc92 453f b5cc 50be 6a73 adbe
000000e0: ae49 38bd de13 643e db8e 4dbf 263d f73e
000000f0: d036 913d 8fdd 653e 7e83 3e3f c45d aabc
00000100: 6b20 623f 40ed f13e f0c0 a43c 4501 12be
00000110: 10b2 853e c4e8 a53d 384f 4ebe c00c 51be
00000120: f573 963d d493 bb3d 10eb dd3e 4e6a aebd
00000130: 4653 e2be a76b 363e c93a e03e 52cc b0be
00000140: 1477 f73e e56d 89bd 7008 0e3f a049 ac3d
00000150: 7e5b 85bc 63d8 b83e 3d4d f9be aa2d c73e
00000160: ffe9 87bc 63bd bcbd dffd a63e bf90 4a3e
00000170: ff3e 9fbe 5665 1cbe 994e aabd e221 053e
00000180: 97d4 80be 3b0c 20be 0f05 47bf 94d6 923e
00000190: 440c 933e 79fc 0c3f 9d23 f1ba 870e 913d
000001a0: c015 1ebe 4c61 543d 04c8 843e 6c64 ad3e
000001b0: 8992 17be 2352 903f 04ef bd3e c2a3 a4be
000001c0: b43a 77be 63a9 9dbd a353 17bf 5895 2c3f
000001d0: 2c71 f33d d2ea 13bf 0de3 a43e d567 053f
000001e0: f632 0cbf ea8b 64be dd55 193f 1c2d 173e
000001f0: f3cc f5be 2615 4bbf 9c11 0ebf 13ab 843e
0.2997619 0.3992917 -0.26001438 0.48981357 0.014415063 0.0985009 0.36854523 0.16341978
-0.006814862 0.50814813 0.049122605 0.8396547 -0.56474084 0.017703202 0.030547515 -0.4251633
-0.21143852 -0.5248892 0.07886203 -0.37837055 0.08528319 0.29945454 0.5803741 -0.21313834
0.64576465 0.15279531 -0.018504659 -0.13255516 0.09358551 0.6160588 -0.22519426 -0.22019517
0.22391963 0.3783417 0.25050214 -0.3807366 -0.09802542 0.13773511 -0.14588018 0.30363268
-0.273922 -0.058256086 0.80587804 -0.34720683 0.019713197 0.14055556 -0.57672054 -0.30489746
0.011949746 -0.06756372 0.18386805 0.06683386 0.21827938 0.77177024 -0.2039059 -0.33877116
-0.04499214 0.22273204 -0.80296105 0.4828884 0.07090533 0.22447799 0.7441939 -0.020796664
0.88330716 0.4725132 0.020111531 -0.14258297 0.26112413 0.08101037 -0.20147407 -0.2041502
0.07346336 0.09159055 0.433434 -0.0851637 -0.44204158 0.17814504 0.4379485 -0.34530884
0.48333037 -0.06710414 0.55481625 0.0841248 -0.016278978 0.3610259 -0.4869174 0.38902026
-0.01659107 -0.0921581 0.32615563 0.19781779 -0.3110275 -0.15273032 -0.083157726 0.13001207
-0.25162193 -0.15629666 -0.77742094 0.28679335 0.28720295 0.5507274 -0.0018397454 0.07082849
-0.15437984 0.051850602 0.2593385 0.33865678 -0.14801992 1.1275066 0.37096417 -0.32156187
-0.24143487 -0.076983236 -0.59111995 0.6741538 0.1188682 -0.5778018 0.32204476 0.5211156
-0.5476526 -0.22318998 0.5989664 0.14763302 -0.48007926 -0.79329145 -0.5549562 0.2591177

tabnet.encoder.initial_splitter.shared.glu_layers.0.bn.bn.running_mean f4 [128]
00000000: 514a c33e 3199 e5bf c96e 25bf 7baa 8fbe
00000010: 0aab 51c0 1339 6dbd 769d 1040 02ec 663f
00000020: 4737 b2bf 1481 89bf 08a4 94be 3a7c 0bbf
00000030: 0375 013f e187 88be 629a a1bf 17a0 df3f
00000040: 5c06 14bf 1a02 043f fd77 e1bd 58e2 4abf
00000050: 2420 e83e 79ea 2540 d567 d13f a333 d43f
00000060: e548 803f 10af c0bf b109 aebf e6ce 4bc0
00000070: 7c09 1a3f c3ec 89be e978 323f 5eed 65bf
00000080: a2ed a23f 7a88 0f3d 675a 913d 9479 97bd
00000090: 50c5 e33f 5e7f 97bf 716c a7bf bcc8 993f
000000a0: ca52 913e 6f55 ba3d 5f74 823f fab7 343f
000000b0: 432c 4ebe 83fd 553f 10c5 b2bd fd03 4c3e
000000c0: 874f 1e3f 1c86 313f 7025 9c3f 2c26 76bf
000000d0: 0ac9 e4bf 882f 91bb 47ed c5be 0a67 aebd
000000e0: 226f 453d 7c0a 5bbf 179c b53e 14dd 3ebd
000000f0: a34c a0bf c37a 983f 0938 b9bf 5083 2bbe
00000100: 2609 0240 c774 4c3f 4a92 bcbf a4e0 76bf
00000110: 6a48 983f c985 ad3f 7894 653f a17a 99bf
00000120: 5230 613f 0946 debf 35b2 cebe cfc3 a6be
00000130: fa61 89bf dfc0 a1bf add1 8fbe 8b38 52bf
00000140: 488a 813f 27bb cfbe 9b3e 413e 646e f5be
00000150: 9ada b1bf ea8e 48be c734 b4bf 5e30 8abf
00000160: f2c8 20bf 3290 6dbf 0232 c1be 116f cb3e
00000170: 5298 23be bb32 9e3f d1b7 35bf 898e 983f
00000180: fab2 31bf bff4 ca3f d7f2 2b3f e9d5 d63f
00000190: eabc 2ebf 8f84 b13f 4907 563e 906b 5e3f
000001a0: af34 96bf 8afa 3fbf 52ab b73e 707f ca3f
000001b0: 550d a6bf 67e1 fe3d 542b cabe 05ee 483f
000001c0: d976 bd3f 4701 f73e 2ca0 dbbf e416 403f
000001d0: afdd 97be 6274 e0bf 120e fd3e 35b4 df3f
000001e0: 615b b5be 73c5 88be e320 7d3f 2463 b6bf
000001f0: 9975 103f ce01 d6bf 5771 80bf 0270 d53e
0.38142636 -1.7937375 -0.6462217 -0.28059754 -3.2760644 -0.05791576 2.2596107 0.9020387
-1.3923119 -1.0742517 -0.29031396 -0.5448643 0.5056917 -0.26666167 -1.2625239 1.747073
-0.57822204 0.51565707 -0.11009214 -0.79251623 0.4533702 2.592436 1.6359812 1.6578258
1.0022246 -1.5053425 -1.3596708 -3.184503 0.6017072 -0.26938447 0.69715744 -0.8981532
1.272877 0.035042264 0.07097321 -0.07396236 1.779459 -1.1835744 -1.3079969 1.2014384
0.28383476 0.090983264 1.0191764 0.70593226 -0.20134072 0.83589953 -0.08728993 0.19923396
0.618401 0.6934526 1.2198925 -0.96151996 -1.7873852 -0.004430715 -0.3865759 -0.08515747
0.048201688 -0.8556287 0.3547065 -0.046597555 -1.2523388 1.1912464 -1.4470226 -0.1674931
2.0318084 0.7986569 -1.4732144 -0.96436524 1.1897099 1.3556453 0.8967967 -1.1990548
0.87964356 -1.7365123 -0.40370336 -0.32571265 -1.0733025 -1.2636985 -0.28089657 -0.8211753
1.0120325 -0.40572473 0.18871538 -0.47935784 -1.3894837 -0.19585767 -1.4078606 -1.079601
-0.6280662 -0.9279815 -0.37733465 0.39733174 -0.15976074 1.2359232 -0.70983607 1.1918498
-0.6941372 1.585594 0.6716742 1.678403 -0.6825701 1.3868579 0.20901217 0.8688288
-1.1734828 -0.7499167 0.35872895 1.5820141 -1.2972819 0.12445336 -0.39486182 0.7848819
1.4801894 0.48243162 -1.7158256 0.7503493 -0.2966132 -1.7535517 0.49424797 1.747687
-0.3542128 -0.26713142 0.98878306 -1.4249005 0.5642944 -1.6719301 -1.0034589 0.41687018

tabnet.encoder.initial_splitter.shared.glu_layers.0.bn.bn.running_var f4 [128]
00000000: 0f8e 6241 cc55 9541 092e 3341 6817 4c41
00000010: b99a 8f41 48cd 7641 4911 8b41 16ef a040
00000020: 8f3a 1b41 db21 8541 2f57 1a41 511b da40
00000030: 6339 5e40 68eb ef40 c536 5f41 0b68 b63f
00000040: 1e03 0541 b035 8c40 7c7c 1b41 e368 7741
00000050: 5c65 bb40 1757 4541 f33e 2d41 5c43 f141
00000060: 0232 4641 e448 9441 1b39 ef40 f4b1 6741
00000070: 87e5 3541 b624 2541 64af 3241 69a4 6f41
00000080: 2bd4 4041 6ce2 2d41 8cee a440 3d53 0b41
00000090: 1cbd 9641 ecb9 a341 71fa 2d41 f547 b240
000000a0: 2053 d241 7285 8b41 c001 9041 ac0b de41
000000b0: 5c94 1241 c9c7 8e41 977e 4a41 f8b8 3d41
000000c0: 3f0f 3742 042f de40 9609 4441 3359 3541
000000d0: 013a 1d41 6e8b 9c41 629b d641 dd97 d740
000000e0: 9a9a 7041 9618 9c40 ccd8 9f41 5c66 9a41
000000f0: 10a9 8a41 255a be40 ae13 5441 abe9 1d41
00000100: ba30 5f41 08b5 a740 a381 8e41 f9c9 5941
00000110: 8223 4741 fca3 aa40 d13c 6d41 ce90 0641
00000120: 0f58 a940 ccb8 e941 0597 1141 8c2f 5341
00000130: 01db ca41 ad54 1941 f229 e140 90e8 6c41
00000140: bb21 d840 5fb0 ee40 90a7 6e41 d362 9c41
00000150: cd14 e640 311f 1141 ac7b f040 662e ab41
00000160: 264f 4a41 63e8 5441 f443 0641 bc32 2141
00000170: 3479 4341 8a61 0641 6525 3741 07c8 2341
00000180: c760 5a41 233b 2841 a8bc ee40 d0b2 3741
00000190: f8cd 1740 15ff c140 2467 1841 456c 7e40
000001a0: fa99 8e41 bd1a 9840 ad86 ef41 8c90 ff41
000001b0: 8576 be40 3eb4 4f41 7d9a 5940 cc8d c540
000001c0: d091 e640 53a5 0241 f563 8d41 8358 a841
000001d0: 0dbf 2841 1ef0 8d40 2c65 eb40 d2ee 4841
000001e0: f82a 0b41 34d5 c540 489e 5541 2db8 b041
000001f0: 7253 0c41 3ba6 9041 be0c 8641 3841 5b41
14.159682 18.666893 11.198739 12.755714 17.950548 15.4251175 17.38344 5.0291853
9.701797 16.641531 9.646285 6.8158345 3.4722526 7.497486 13.950871 1.4250501
8.313261 4.3815536 9.717892 15.463107 5.856123 12.333762 10.827868 30.15789
12.387209 18.535591 7.475721 14.480946 11.368537 10.321463 11.16782 14.977639
12.051799 10.867779 5.1541195 8.707822 18.842339 20.465782 10.873643 5.571284
26.290588 17.440159 18.000854 27.7557 9.161221 17.847551 12.655906 11.857658
45.76489 6.943239 12.25234 11.334277 9.826661 19.56808 26.82587 6.737288
15.0377445 4.878001 19.980858 19.29998 17.33255 5.948504 13.254805 9.869548
13.949396 5.2408485 17.8133 13.61181 12.446169 5.3325176 14.827348 8.410353
5.2919993 29.215233 9.09937 13.199108 25.356936 9.583173 7.0363703 14.806778
6.7541175 7.4590297 14.915909 19.548254 7.190039 9.070115 7.5150967 21.397655
12.644323 13.306735 8.39159 10.074886 12.217091 8.398813 11.44663 10.236335
13.648627 10.514438 7.4605293 11.481155 2.3719463 6.062388 9.525181 3.9753582
17.825184 4.753264 29.94076 31.94558 5.9519677 12.981504 3.4000542 6.173559
7.2052994 8.165362 17.673807 21.043219 10.546643 4.435561 7.3561 12.558306
8.69799 6.182276 13.351143 22.08993 8.770372 18.081167 16.756222 13.703423

tabnet.encoder.initial_splitter.shared.glu_layers.1.fc.weight f4 [128, 64]
00000000: 82a9 463f 9507 74bf aa5a f4bd 5ee9 403e
00000010: d608 643e d187 373e 0357 1fbe 9f67 313f
00000020: 836f ac3d c8ce cabd 6eb6 ccbe 9d9c 81be
00000030: 00f8 103e 93c7 6ebf f544 e43d 7664 423f
00000040: 9e4a e7bd 7035 f93d 47a7 a23e b07b 82be
00000050: 1f26 613f 3cd3 b3be 33bf 61be 7ba1 063f
00000060: c291 37bf e7b3 5bbf de83 eebe 389e 23bf
00000070: 1ab8 dfbd 5e76 b2bc 5e73 c23c 9aa4 0abd
00000080: 719b 0cbf 9b96 2e3e 0d82 8b3d 1b39 bc3e
00000090: c9dd 583b 6fc0 1d3f 0bf9 e3be 042e 01bc
000000a0: 0a95 a9be 4897 74be b9f6 27be 80ae a53e
000000b0: d7ac 11bf 8e70 cdbe 440d d2bf 2903 58bf
000000c0: 0824 513e 9a30 b53d b1cc a7be 5352 a83b
000000d0: 956d f83d a0dc 0dbf d92c 34bb 05b3 8b3e
000000e0: cdbe 2b3e 7a8d acbe f202 58bf da29 43bf
000000f0: ba38 15be 5063 a0be ff35 543e 7669 66bc
00000100: c86d 65be 0796 093f 3fc7 40bf acc0 403f
00000110: 1953 86be 67da 1b3f 574e b53d d8cb 6e3f
00000120: b533 8b3e 2f92 85bf 78b9 023f acd8 583e
00000130: 9f37 f03d d28e 42bf 5709 2cbf a275 543f
00000140: ca1c 6e3f e1f3 0e3f 1f5a da3e cd4b 6b3f
00000150: 59ea aabe b656 fbbd df53 9cbd a51f 30be
00000160: 421e db3e 837a f83e 8ad8 d7bf d5ae 153e
00000170: 2d3a f53e 5aa3 a93e 5737 67bf e35b 12bf
00000180: 2534 c43e 5432 29be 0f09 823e 9256 523f
00000190: 580d ecbe ca91 c4be ddff aebe dcb6 7a3e
000001a0: 7569 f6be 11c9 443d 90b3 4cbf a13e 1ebe
000001b0: 6c19 00be a78e 86bf c25d c73e 3c9e ab3c
000001c0: d4af e6be 5c69 abbe db6e 3dbe b101 28bf
000001d0: c1d3 2bbf a9b9 54be 607a 36bf a983 97bf
000001e0: cd56 3bbe 5e68 debe 8101 28bf 7e97 d83e
000001f0: be5f 39bf 2157 233e 8fa5 e1bf 169b 06bf
00000200: d999 b13d 005f 6ebe ea52 4d3f 3530 143f
00000210: 686d 4abe 4396 90be eeb1 9dbe 9612 943d
00000220: 381d 87bf 8d01 083f 44a9 333c ca80 433e
00000230: 80d8 323f dac4 92bd 2eae 133f e050 e4be
00000240: ce7c e23e ccb3 f5be b898 d6be 5d68 b2be
00000250: 9f52 63bf fa13 d4be 8cf3 b6bd 9fef 96bf
00000260: 7dc3 9ebf 1a86 6bbe 6779 b53e ac5c ef3c
00000270: 2ed6 48bf 77ca 263f bbf2 37be dd48 00bf
00000280: 969f b13e b4d8 e13e 64ab f13e 45af a8be
00000290: cb59 56bd 37cb edbe f611 8f3e 0676 afbe
000002a0: a77b 8e3b cd7e a0bf 1908 41bf b52e 82be
000002b0: 8e0f 4fbd d082 5c3f 0d9c 6abd 1380 0e3f
000002c0: 9cc3 af3e d06e 44be fdbf bf3d 9fe8 b9bc
000002d0: 221c 713f 56d8 3d3f 4882 b23f 3e46 f33e
000002e0: 0362 89be d4ea f7be 1281 503e ae61 0cbf
000002f0: a441 813e 0ada f03e a8f2 ec3d f2f3 883e
00000300: c4d7 8cbd ef41 763f f9e2 0b3f 69fd 68bf
00000310: 2e61 8f3f 09bd 34bf 4cb1 1abf 46f2 93bc
00000320: 2ab2 323f f08f 0abf d1f9 783f 68b6 a83f
00000330: 309e e1bc 38e9 40bf a3e2 21be c3d8 b1be
00000340: b184 693d d1d7 bf3e 17d9 d73d 78b6 0cbe
00000350: 3330 2ebe d2bb 5cbd e7cc c9bd 1155 00be
00000360: 83eb d43d ce19 ae3e 87dc 89bf 76a6 1f3f
00000370: 4a87 bf3e 9938 423f ba8f bb3e 2ca7 b93d
00000380: eeea a2bd d990 15bf 1245 34bf 78de 6a3e
00000390: bc86 db3d b87c e5bd 31b7 073f 9b35 6fbe
000003a0: 8564 443f cb0e adbe add0 553f b9a8 eabe
000003b0: 2b64 1dbc 5f84 43bf 1b2e 78bf 1191 153f
000003c0: 09af a73e 2282 c3be 2d47 863f 6e18 c8bd
000003d0: e2d1 fc3d 252c 243e 5f58 1cbe 1bc0 82be
000003e0: 531f 7b3d 3feb af3e b2bf 263e 3925 b93e
000003f0: ef95 05bf fc0c 7bbf b19b 593e adda 2e3e
0.776024 -0.9532407 -0.11931355 0.18839023 0.22268996 0.17922904 -0.15560536 0.6929874
0.08419707 -0.09902722 -0.39982933 -0.253148 0.14157104 -0.93273276 0.11145965 0.7593454
-0.11293529 0.121683955 0.31768247 -0.2548499 0.87948793 -0.35122097 -0.22045593 0.5259015
-0.71706784 -0.85821384 -0.46584982 -0.639133 -0.109237865 -0.021784957 0.023736652 -0.033848383
-0.54924685 0.17049639 0.068119146 0.36762318 0.0033091179 0.61621755 -0.44525942 -0.007884506
-0.3312152 -0.23885834 -0.16402711 0.32359695 -0.5690436 -0.40124935 -1.6410298 -0.8437982
0.20423901 0.08847161 -0.32773355 0.005136767 0.12130276 -0.5541477 -0.0027492552 0.2728502
0.16772003 -0.33701688 -0.84379494 -0.76235735 -0.1457242 -0.3132577 0.20723723 -0.01406323
-0.2240516 0.5374455 -0.75304025 0.75293994 -0.26235273 0.6088013 0.08852833 0.9327979
0.27187887 -1.0435237 0.5106425 0.21176404 0.11729359 -0.75999177 -0.6720175 0.82991993
0.9301268 0.5584088 0.42646882 0.9191254 -0.33381918 -0.12272398 -0.07633185 -0.17199571
0.42796522 0.4853097 -1.6862957 0.14617474 0.47895947 0.3313244 -0.90318817 -0.5717146
0.38321033 -0.16523105 0.25397536 0.82163346 -0.4610393 -0.38392478 -0.34179583 0.24483818
-0.48127332 0.048043314 -0.7996149 -0.15453579 -0.12509698 -1.0512284 0.3893872 0.020949475
-0.4505602 -0.3347882 -0.1849932 -0.6562758 -0.67119986 -0.20773949 -0.7128048 -1.1837054
-0.1829483 -0.43439 -0.65627295 0.4230308 -0.72411716 0.15951206 -1.762865 -0.5258039
0.08671922 -0.23278427 0.8020464 0.5788606 -0.19768298 -0.2823964 -0.30799812 0.072301075
-1.0555792 0.53127366 0.010965649 0.19092098 0.698616 -0.07166453 0.5768765 -0.44592953
0.44235843 -0.47988737 -0.4191339 -0.34845248 -0.88797945 -0.4142149 -0.08933172 -1.1791877
-1.2403408 -0.23000374 0.35444185 0.029218994 -0.7845181 0.65152687 -0.17963688 -0.5011118
0.34692067 0.44110644 0.47201073 -0.3294622 -0.052331727 -0.46444103 0.2794339 -0.34269732
0.0043482366 -1.2538697 -0.7540298 -0.2542626 -0.050551943 0.86137104 -0.057277728 0.55664176
0.34328926 -0.19182897 0.09362791 -0.02269393 0.9418355 0.7415823 1.3946009 0.47514528
-0.2683259 -0.48421347 0.20361736 -0.5483655 0.25245392 0.4704135 0.115697205 0.26748616
-0.068770915 0.96194357 0.5464321 -0.91011673 1.1201532 -0.70600945 -0.60426784 -0.01805986
0.69803107 -0.5412588 0.9725619 1.3180666 -0.02754125 -0.75355864 -0.15809111 -0.3473569
0.05701131 0.37469342 0.105394535 -0.13741481 -0.17010574 -0.053890057 -0.09853535 -0.1253245
0.10396483 0.34004062 -1.0770425 0.62363374 0.37407905 0.7586761 0.36633092 0.09065089
-0.079549655 -0.58424145 -0.7041789 0.22936428 0.10719058 -0.11205429 0.530139 -0.23360293
0.7671588 -0.3380035 0.8352154 -0.4583185 -0.009606401 -0.7637386 -0.9694535 0.5842448
0.3275073 -0.3818522 1.0490471 -0.097702846 0.123447195 0.16032465 -0.15268086 -0.2553719
0.06130917 0.34359166 0.16284063 0.3616121 -0.52181906 -0.9806669 0.21250798 0.17075606

tabnet.encoder.initial_splitter.shared.glu_layers.1.bn.bn.weight f4 [128]
00000000: 9feb 783f 2244 153f 3e79 7f3f 82d6 6d3f
00000010: c5d1 8e3f dc22 573f a503 443f 09f5 9b3f
00000020: b6ed 983f 5233 9f3f a2df 193f 9469 513f
00000030: 6e36 b23f 8e1b 723f 3137 683f 04a5 183f
00000040: fc7b 6a3f 3cce 0a3f c18e b13f a69e 793f
00000050: 93e9 833f e5a4 7a3f eeff 873f 9957 583f
00000060: 6a51 8b3f 24c2 5e3f 0a33 8f3f 812b bb3f
00000070: 3ac8 323f e88a 193f 90a6 743f 63e6 533f
00000080: 3f40 853f dc5e 983f 6399 9a3f 4cc5 733f
00000090: 6539 913f bd91 e83e 0dd8 8c3f d40c 5a3f
000000a0: eb2e 733f 0375 473f a2d4 873f 5081 9c3f
000000b0: 1e7a 8f3f 3c1a c43e a798 a33f af35 ad3f
000000c0: 15ae ca3e dc5b 6e3f 34c3 133f b5e5 6e3f
000000d0: b1f3 843f 7dbb ea3f ee5e 633f 6f2a 993f
000000e0: e3b3 833f 3f21 8a3f 5299 883f 6daf c13f
000000f0: ebd5 7f3f 5968 583f 82c7 8e3f 647e 2a3f
00000100: efc6 823f 940a ab3f 603a 763f 9521 8b3f
00000110: e5b0 ae3f 74b1 9d3f 15c7 4a3f 18b3 b53f
00000120: 8eda 7a3f 6740 b63f 3691 6d3f 109d 513f
00000130: 2828 8a3f 772a b03f 7d8f ad3e 5c08 883f
00000140: a5ba 143f 2d5b 1a3f 95e9 393f 9111 733f
00000150: ec45 303f 78a4 443f 2a38 853f 7a77 913f
00000160: 99a5 263f a39b 6d3f f69c 913f d011 9b3f
00000170: ca13 843f 6af7 293f 9126 933f bf16 923f
00000180: db10 c53f 33df a33f 872a 983f fecd 853f
00000190: fdd6 863f 7fd5 cf3f 6f50 563f bf13 7c3f
000001a0: c2fd c03f 3544 663f 5c22 ae3f 7e2f a53f
000001b0: 36d4 8b3f 09b1 293f d1cf 3a3f 664e b13f
000001c0: 13ac 4a3f 6105 663f 3618 b43e d51f c13f
000001d0: 0dc2 113f ac83 f03f 8016 c63f b6b5 ea3e
000001e0: cf82 6b3f 7223 b03e bd83 6c3f 15f1 f23f
000001f0: 1a7b d93f af8c bc3f d8c9 013f 479f 3f3f
0.9723453 0.5830709 0.99794376 0.9290544 1.1157767 0.84037566 0.7656806 1.2184154
1.1947544 1.2437537 0.6010686 0.81801724 1.3922861 0.94573295 0.90709215 0.59626794
0.91595435 0.5422094 1.387169 0.97507703 1.0305656 0.9790786 1.0624979 0.84508663
1.0884221 0.87014985 1.1187451 1.4622651 0.6983677 0.5997758 0.95566654 0.8277342
1.0410231 1.1903949 1.207806 0.95222926 1.134564 0.4542369 1.1003433 0.85175824
0.94993466 0.7791292 1.0611765 1.2226963 1.1209142 0.38301265 1.2780961 1.3532008
0.3958594 0.93108916 0.5771973 0.93319255 1.0386869 1.8338467 0.88816726 1.1966075
1.0289272 1.0791396 1.067179 1.5131661 0.9993579 0.8453422 1.1154635 0.66599107
1.021696 1.3362603 0.96182823 1.0869623 1.3647734 1.2319779 0.79210025 1.419528
0.9798974 1.4238404 0.927997 0.81880283 1.0793505 1.3762959 0.33898535 1.0627551
0.58097297 0.60295373 0.7262204 0.9494868 0.6885669 0.7681346 1.0407765 1.1364586
0.6509643 0.9281561 1.1376026 1.2114811 1.0318539 0.6639315 1.1496145 1.1413192
1.5395769 1.280249 1.1887978 1.0453489 1.0534359 1.6237029 0.8371648 0.9846763
1.5077441 0.89947826 1.3604236 1.2905118 1.0924137 0.6628576 0.7297335 1.385205
0.79168814 0.8985196 0.3517472 1.5087839 0.56936723 1.8790183 1.5475616 0.4584176
0.91996473 0.34402043 0.92388517 1.8979822 1.6990693 1.4730433 0.50698614 0.7485241

tabnet.encoder.initial_splitter.shared.glu_layers.1.bn.bn.bias f4 [128]
00000000: 659c 28be a12c c83e dd50 3dbe f499 c73e
00000010: 652e ddbd e6ed 16be e6a9 27bd 49b9 1e3e
00000020: a684 30bf 02cf 693e 76dc c03e b419 edbe
00000030: c88c cebe 509c f83e 4aa2 583e 2b80 8a3d
00000040: fa32 af3e 1921 bdbe 7799 1c3e ada9 313e
00000050: 0600 9e3d eedc b13e ac2b 31be 0d7a 85be
00000060: 4054 c03e bfa8 50bf 054d 163f 7863 403f
00000070: 1c2e 19bb 7590 3e3e adf0 ffbe 3638 39be
00000080: dab6 833e 64b8 133e 7339 c5be c57f c93e
00000090: 5814 dabe 7b87 173f f7f7 963e bc7f b53e
000000a0: e064 6ebe 4239 15ba f8fc fdbd 9a09 88be
000000b0: 68bf d23e 5d04 b4bd 5a63 453f 5398 67bf
000000c0: bafa 283e 1a2b c13e 7ce6 343e fb67 d2bd
000000d0: 606e e83d 94a8 233f d6d1 d13e 03bb 4cbe
000000e0: a26b f73d ebd3 663e 9603 b5be c129 903e
000000f0: 9ecb e33e 929c e13e 6021 b0be 4296 0fbe
00000100: 7560 8cbd 9cc7 71be 590e 9c3e cc7d 373d
00000110: cd42 73bd 62b9 9bbe 761b 03bf 8eb6 e83c
00000120: 8c42 093e 995d ab3e 51f5 e1bd 8b08 123f
00000130: d284 903e b96f 20be d3cf 0f3e 9692 0abf
00000140: 8b02 a3bd 6354 7dbe edf4 ef3e 54b9 053e
00000150: 0144 bbbc 46e6 123e f17f 32bc 954e 62be
00000160: c25c a93e f0ad 523d cdba 91be f373 e93d
00000170: 639e f2be 8e0e c1be 7384 323e 9221 90bd
00000180: 7ade 07be 2132 6e3c c5af 523e dbe5 27bd
00000190: 64dd 1e3d a156 32bf 9002 253f 13cc 3cbe
000001a0: afc5 8ebd 9e61 383f a07e 1d3f a7b7 a13c
000001b0: 9df6 b93d a5d0 66be aa42 4f3e c006 b73e
000001c0: 192e 4dbf 3947 08bd d908 a0be 46bd edbe
000001d0: 3a1c 0c3e 49a9 2b3f b450 c6be 92f2 4b3e
000001e0: 53c9 143e b3bd 113f dde3 3bbe 89e1 f63a
000001f0: 8fea 9ebe 89c8 83be ad80 b43e f463 98be
-0.1646591 0.3909655 -0.18487878 0.38984644 -0.10799865 -0.14739189 -0.040933512 0.15500368
-0.68952405 0.22832873 0.37668198 -0.46308672 -0.40341783 0.48556757 0.21155658 0.06762727
0.3421858 -0.36939314 0.15292917 0.17349882 0.07714848 0.34738868 -0.17301816 -0.2606968
0.37564278 -0.81507486 0.5871127 0.7515178 -0.002337343 0.18609793 -0.4998831 -0.18087849
0.25725442 0.14425808 -0.38520393 0.39355293 -0.42593646 0.591911 0.29486057 0.35449016
-0.23280668 -0.0005692431 -0.124017656 -0.26569825 0.41161656 -0.08789895 0.77104723 -0.90466803
0.16501895 0.37728196 0.17666048 -0.10273739 0.11349177 0.63929105 0.40980405 -0.19993214
0.12081076 0.22541778 -0.35354298 0.28156856 0.44491285 0.44064766 -0.34400463 -0.14022163
-0.06854335 -0.23611301 0.30479696 0.044797704 -0.059389878 -0.30414873 -0.5121378 0.028407361
0.13404292 0.33469847 -0.110331185 0.57044286 0.28226334 -0.15667619 0.14044122 -0.5412992
-0.079594694 -0.24739222 0.4686655 0.13058978 -0.022859575 0.14345655 -0.010894761 -0.22100289
0.3307858 0.05143541 -0.2846283 0.11399069 -0.47386464 -0.37706417 0.17433338 -0.07037653
-0.13268462 0.014538319 0.20574863 -0.04099069 0.038785353 -0.69663435 0.64457035 -0.18437223
-0.06971299 0.7202395 0.6152134 0.019740893 0.09080241 -0.22540529 0.20240274 0.35747337
-0.80148464 -0.03327105 -0.3125675 -0.46433467 0.13682643 0.67055184 -0.38733447 0.19916752
0.14529924 0.56930083 -0.18348642 0.0018835525 -0.3103833 -0.25738934 0.35254422 -0.29763758

tabnet.encoder.initial_splitter.shared.glu_layers.1.bn.bn.running_mean f4 [128]
00000000: 34f5 e5be 8664 96bf d55f 39be cbac 253f
00000010: ac82 063f 0994 d1be 4753 adbe 1de4 b4bf
00000020: 80e7 b7bf a566 78bf 8b2e 82bc 8dbb f63e
00000030: 0011 75bf 277d 9d3e f075 2fbf 66bd b83f
00000040: 9798 d03e 3332 77bf e0a4 833f 6bd1 adbf
00000050: b4a5 0ec0 1128 a23d 03ff d8be b949 643f
00000060: 369e e83f 2111 e9be 4163 8cbf 941e 3bbb
00000070: 57f3 40be 7c99 613f b977 3bbe 65b6 f73d
00000080: 0d20 b5bf d1d2 b93e 8e7b 383f 264d 4d3f
00000090: e577 29c0 5517 c13f 9a38 1abe 09f0 08c0
000000a0: 5a59 953f c57f db3e d970 563f 9db9 90bf
000000b0: 4469 543d d022 d53f 9c7e bcbf 21f5 4dbf
000000c0: de9b 2c3f 7616 92bf e6be 413e 2492 a43f
000000d0: 79a2 c03e 1706 56bf ef43 893f 82d2 75bf
000000e0: 182c 423f 30a5 8f3f 7d17 d53f da6c dc3f
000000f0: 1da4 80bf c9dd 6ebf dc29 763f cd78 563d
00000100: dca0 9d3e 8603 22bf 4dd3 23c0 6d81 cdbf
00000110: 6867 4e3e 7a8f 1cbf f2f4 c9bd ed63 95bf
00000120: dce4 d03f deda d5be 0c62 ad3f 3ae6 8bbf
00000130: 12bd c9be e59d 3b3e 3bb0 a3bf 1a42 8e3f
00000140: 9a94 533f 9023 4dbf e29f 963f c119 693e
00000150: 4685 9b3f 935a 4640 b96d 80bf f7bd 84bf
00000160: f49c 40bf 1b4a ae3c 4ac7 bfbf 3138 8fbf
00000170: cb9c 723f 9411 95bf 8e87 c63e 46bf dd3f
00000180: d1e2 b33f 5918 76bf 6023 0e40 9f7a 16c0
00000190: 47be 613f 5acf 5bbf 396a f33e 9074 99be
000001a0: 09da ccbe 2d80 4abf 9b3d 893f 5c78 84bf
000001b0: 13ad 193d 47d8 fd3f 4d39 b83f 0ce1 08c0
000001c0: 0174 313f d0ac fe3e bf8f 193f 07e0 f83f
000001d0: 7e43 3fbf de89 b13f 6681 79bf 03ef fabf
000001e0: 0666 f1be 0ab2 66be 217e dcbe eeb1 18be
000001f0: 4fe7 97be 6793 ff3d 1079 0240 7f41 263f
-0.44913638 -1.1749427 -0.18102963 0.64716786 0.5254314 -0.40933254 -0.33852598 -1.4132115
-1.4367523 -0.97031623 -0.015891334 0.48189965 -0.95729065 0.30759546 -0.68539333 1.44328
0.40741417 -0.9656097 1.0284691 -1.3579534 -2.2288637 0.07917798 -0.42382059 0.8917499
1.8173282 -0.4552088 -1.096779 -0.0028552162 -0.18842827 0.88124824 -0.1830739 0.12095336
-1.4150406 0.36293653 0.7206353 0.80195844 -2.6479428 1.5085245 -0.15060654 -2.1396506
1.1667893 0.42870918 0.8376594 -1.1306645 0.0518582 1.6651249 -1.4726138 -0.8045216
0.67425334 -1.1413105 0.18920478 1.2857099 0.37623957 -0.8360304 1.0723857 -0.96024334
0.7584853 1.1222286 1.6647793 1.7220719 -1.0050083 -0.9330717 0.9615762 0.0523613
0.30786788 -0.63286626 -2.5597718 -1.6055123 0.20156634 -0.6115643 -0.09861173 -1.167112
1.6319842 -0.41768545 1.3545547 -1.0929635 -0.39402062 0.1832195 -1.2788156 1.1113923
0.82648623 -0.8013239 1.1767542 0.2276373 1.2150047 3.0992782 -1.0033485 -1.0370473
-0.7523949 0.02127557 -1.4982693 -1.1189023 0.947705 -1.164599 0.38775295 1.7323997
1.4053594 -0.961309 2.220909 -2.3512342 0.88180965 -0.8586327 0.4754198 -0.29971743
-0.40010098 -0.7910183 1.0721925 -1.0349231 0.037518572 1.9831628 1.4392487 -2.1387358
0.6931763 0.4974122 0.59984964 1.9443368 -0.7471236 1.3870199 -0.9746307 -1.960419
-0.4714815 -0.22528854 -0.4306498 -0.14911625 -0.29668662 0.12479287 2.038639 0.6494369
