TabTransformer_template/trans_bestmodel.pth (torch, 742657 bytes, 74 tensors)

norm.weight f4 [6]
00000000: a67e d73e ea01 923e 967e ac3e 64d0 ba3e
00000010: d788 e73e c45c 823e
0.42088813 0.28517085 0.33690327 0.36487114 0.45221588 0.254614

norm.bias f4 [6]
00000000: 75b1 0a3d 825e b8bd 2b69 bebc 9c87 c5bd
00000010: 31d9 9fbc 36e6 7b3d
0.033860642 -0.09002401 -0.023243507 -0.09645006 -0.019512745 0.061498843

transformer.embeds.weight f4 [22, 32]
00000000: 671b 8dba e848 90ba 1217 7bb9 8b63 d9b9
00000010: ffc3 543a 274b 2d3a 6d42 9eb9 7c7a 04bb
00000020: 3977 a139 f52a 9eba a354 af39 198c 9a39
00000030: a749 f038 e52c 9b3a 490d 8c3a 43c9 77b9
00000040: c399 a9ba 3093 d4ba 73f7 0d3a a3f4 463a
00000050: e915 163a a2de c2ba a71a abb9 7b1f e83a
00000060: f7e4 3b3a 89ab 12ba 8fb2 2db9 4805 3839
00000070: 63fa ad3a 47de c63a cc1a 6d3a 1c7a 53ba
00000080: 26dc 19ba ad2e fd37 6ae1 f6b9 43e8 7839
00000090: 5c4c dc39 6364 e138 f980 203a c90b dd39
000000a0: a206 cdb8 e2ae 463a b117 91b9 0091 5238
000000b0: eaf4 023a b31f 103b 5b28 b8ba e4e9 c6ba
000000c0: a0c5 28ba 6a9e 5a3a af30 843a 4e40 3239
000000d0: 61e2 66b9 4e65 c4b9 1830 083a 5e23 c6b9
000000e0: 20a3 dfb9 c96f 3a3a bc80 be3a 97c4 553b
000000f0: 20cf bfba 81c0 9aba 4f19 e43a b74b 0aba
00000100: 39b5 21be 60b4 593d c12e aa3b b05a ccbc
00000110: cba7 9a3d 7bc6 073c 469c 7f3c f875 18bd
00000120: 2517 9cbd 42e1 343b fafa 2cbd 106c 18bc
00000130: 182b 1f3c d34f 2c3e 19fb be3d 1653 303d
00000140: a573 9b3b c60a 283d f9dc 40bd 9309 2fbe
00000150: d971 19bd bd72 303a e8df 23be faa9 443d
00000160: 2bbf 21be be72 b23e 7a48 b3bd 5318 9bbd
00000170: 4341 0f3c 354d 1dbe 9f83 0dbd e12e 923c
00000180: 9878 243d 73b7 bdbc 8c4a e93b 270a 6ebc
00000190: 9928 803c acf2 83bd 2c55 f5ba 68f3 863b
000001a0: 15fe b7bc 74a2 0cbd d338 e5bb 5594 1b3c
000001b0: 36cc 05bc 60df a7bc 2ed2 323c da60 b13c
000001c0: 93c3 173d 483d 53bd 7464 703c e109 4a3c
000001d0: b08a 90bb 02bd 543c 58db 733c 15d6 003d
000001e0: 3999 4ebc 9fb2 1a3d 8d86 de3d d256 303c
000001f0: b3e3 353c e93b fdbb 5a9b 0b3c 0642 1aba
00000200: c045 8dbd 6137 803e 9b5f 24bd df0a b33d
00000210: a25e c03d 4775 f93c 38d8 ea3a 1a10 2cbd
00000220: ad1d 5f3d c9f0 7abc c943 26bd f3f4 a7bd
00000230: 62e7 a63c 28f5 4cbd f093 89bd e83b 8ebd
00000240: 858a 68bd 63f0 893d 2566 0fbd 4902 1b3e
00000250: f85a f5bb fe10 0ebd 9152 00be b05b 33bd
00000260: 56dc c03d 9ad1 fcbd e23d a8be 454c 17bb
00000270: 3efa 893c 8707 6b3d 0db9 813b 8d4d 853d
00000280: 9e83 7e3e 54de 6cbe eca2 d93c 6b97 b83d
00000290: ee19 c3bd 2dc5 ae3d 2095 f4bc 29ff 9f3c
000002a0: 5b75 d4bb 9055 79bc d293 333b d238 64bd
000002b0: cc96 943b efd4 3b3c b611 36bc 18ac 893b
000002c0: c116 94bd e2c5 3f3e e7f1 18be 7f7b 37bd
000002d0: 4b63 c5bd 5285 acbc 32ba b43e f290 10bd
000002e0: fe60 d0bd 82a9 15bc 4c2e cebd 401d 95bd
000002f0: af65 96bd 8b32 adbd 5e5c 403c 375d e83d
00000300: 5535 14bd 8624 3dbe 4352 5b3c c070 0f3d
00000310: 0ce8 da3c 717d 1ebd 922c 703d e866 d63c
00000320: 2a67 bb3c 5a1f fabb 4bb7 33bd 80ec 4cbc
00000330: 546b aa3d 9bf3 04bd 0b80 693d 2235 8bbb
00000340: 2542 f93b 99db f2bc 1a2b 03bd ed7a 59bd
00000350: f03e e63d dabe 583c ef4a 803c dc59 93bc
00000360: 2e97 6d3d 443b bc3d 864d bcbc 7668 413b
00000370: 3921 c63c f0a4 013d bbda 043e 7b47 a5bc
00000380: 0f4a 18be 17c7 11be 2554 033e 2cf3 b53c
00000390: 83db f73d b53b 023e e964 49be efe7 6f3e
000003a0: 86db 25be e5d9 a03d 68ec 753c 3f50 963d
000003b0: 9ff5 91bd 4f00 d93e 89b2 53be 1b13 663e
000003c0: ffa8 0a3d 3d55 783e cb79 543e a3e4 c8be
000003d0: f8ea df3d a151 b5bc 6851 80be 07e5 f13b
000003e0: e770 babd 7725 963e 6120 dfbd c96c 863d
000003f0: ba25 c7bd 52a7 3abc 44e4 eb3d b63a 06be
-0.0010765613 -0.0011008056 -0.0002394582 -0.0004146363 0.0008116364 0.0006610625 -0.000301856 -0.0020214608
0.0003079714 -0.0012067246 0.0003344166 0.0002947755 0.000114578106 0.0011838941 0.0010685112 -0.00023630731
-0.0012939501 -0.0016218182 0.0005415596 0.00075895543 0.0005725311 -0.0014867375 -0.0003263552 0.0017709577
0.00071676023 -0.0005595019 -0.00016565084 0.00017549575 0.0013273474 0.0015172445 0.00090448256 -0.0008067207
-0.00058692915 3.0181685e-05 -0.00047088723 0.00023737647 0.00042018562 0.000107475345 0.0006122734 0.00042161185
-9.776397e-05 0.000757916 -0.00027674207 5.0202943e-05 0.00049956015 0.002199155 -0.0014050113 -0.0015175906
-0.000643814 0.00083396456 0.001008531 0.00016999358 -0.00022018842 -0.0003745951 0.0005195155 -0.00037791854
-0.00042655412 0.0007111994 0.0014534215 0.0032618397 -0.0014633872 -0.0011806638 0.0017402562 -0.00052755646
-0.15791787 0.053150535 0.005193562 -0.024945587 0.07551535 0.0082870675 0.015601223 -0.03722188
-0.07621602 0.0027600084 -0.042231537 -0.009303108 0.009714864 0.16827326 0.09325237 0.043047987
0.0047440105 0.0410259 -0.047085736 -0.17093496 -0.03746209 0.00067309645 -0.16003382 0.048013665
-0.15795581 0.34853166 -0.08754058 -0.07572999 0.008743587 -0.15361483 -0.03454935 0.01784462
0.04015407 -0.023158764 0.0071194824 -0.014528788 0.015644358 -0.0644277 -0.00187174 0.0041183718
-0.022460023 -0.034334615 -0.0069952994 0.009495814 -0.008166363 -0.020492256 0.010914369 0.021652628
0.03705175 -0.051572114 0.014672387 0.012331457 -0.004411064 0.012984516 0.014883839 0.031454165
-0.012609773 0.037768003 0.10865507 0.010762887 0.011101651 -0.007728089 0.008520925 -0.0005884472
-0.068980694 0.2504225 -0.04013024 0.08742308 0.0939305 0.03045143 0.0017917221 -0.042007543
0.05447166 -0.015316197 -0.04059199 -0.08201017 0.020374004 -0.050038487 -0.0671767 -0.0694502
-0.056772728 0.06735303 -0.035009522 0.1513759 -0.007487651 -0.034684174 -0.12531497 -0.043788612
0.09417026 -0.12344666 -0.32859713 -0.0023086232 0.016842958 0.057380226 0.0039588274 0.06508932
0.24854895 -0.23131686 0.026566945 0.09013256 -0.0952643 0.08533702 -0.029856265 0.01953085
-0.0064837164 -0.015218154 0.002740134 -0.05571825 0.004534578 0.011464342 -0.011112621 0.0042014234
-0.072309025 0.1872783 -0.14936028 -0.04479551 -0.09638079 -0.021059666 0.35298306 -0.03529448
-0.1017475 -0.009134652 -0.10067424 -0.072809696 -0.07343613 -0.08456906 0.011740772 0.11345904
-0.036183674 -0.18470964 0.013386312 0.035019636 0.026721977 -0.03869385 0.058636256 0.026172116
0.02287634 -0.007633132 -0.043875974 -0.012507558 0.083212525 -0.032458883 0.057006877 -0.0042482773
0.007606762 -0.029645728 -0.032023527 -0.053095747 0.11242473 0.013229096 0.015660731 -0.017987184
0.058005504 0.091909915 -0.022986185 0.0029511726 0.024185764 0.031651437 0.12974064 -0.020175686
-0.14872001 -0.14236103 0.12825067 0.02221068 0.121024154 0.12718089 -0.196674 0.2342832
-0.16197023 0.0785406 0.015009977 0.073395245 -0.07126927 0.42383048 -0.20673575 0.22468226
0.033852573 0.24251266 0.20749585 -0.39236936 0.109334886 -0.02213365 -0.25062108 0.0073820385
-0.09103566 0.29325458 -0.10894848 0.06563718 -0.09723993 -0.011392431 0.115181476 -0.13108334

transformer.layers.0.0.fn.norm.weight f4 [32]
00000000: d4ee 9a3b 914c 9fbb 9ca0 53bc cdc4 08bb
00000010: 22fb 193b d1ab 3abc 0dcb feba 3ea3 0cbc
00000020: a1dd e539 a12d 9bbb 32f6 56bb 93fa 003d
00000030: 5a0b 8b3c f59b eb3d c2b9 b93b 3803 8bbb
00000040: 684b 23bc a9c2 c03d 98ab d5bb f1b7 0ebc
00000050: 7aaf 5abd f250 92bb b5f0 80ba bdac 18bc
00000060: e9a0 da3d e9ce f33b 1135 92ba f888 343c
00000070: 3828 12bb a873 b73d a80f f9bc 02a2 9fbc
0.0047281776 -0.0048614223 -0.01291671 -0.0020869256 0.0023495634 -0.011393503 -0.0019439176 -0.008583842
0.0004384341 -0.004735664 -0.0032800552 0.031488966 0.016973186 0.11504356 0.005667896 -0.004242327
-0.009966709 0.094121285 -0.0065206997 -0.008710847 -0.053390004 -0.004465216 -0.0009837361 -0.009318528
0.106752224 0.007440437 -0.0011154731 0.011018984 -0.0022301804 0.089576066 -0.030402973 -0.019486431

transformer.layers.0.0.fn.norm.bias f4 [32]
00000000: 934e c63a d8bb d1bb ab83 de3b f15f c038
00000010: 02e1 763a 79ae 45bb 24af 2cba d326 783b
00000020: c0ba 863b b8ff 21bc 13ef 8e3b f9d7 c13a
00000030: 503b 14bc e210 933d d2b2 903a 415f bbbb
00000040: d5c4 ae3b af82 1c3d 0992 f7ba a3e6 c5bb
00000050: cd9a 9c3b 880a e6bb dbc2 483b d9b9 96bb
00000060: 7951 cf3c 75f1 cfb8 b484 503b 1229 253b
00000070: 55e6 22bb 9488 893c d59e 8f3b 174c 5b3b
0.0015129618 -0.0064005665 0.0067905984 9.173144e-05 0.0009417684 -0.0030163808 -0.0006587377 0.0037864938
0.004111618 -0.009887628 0.004361996 0.0014789096 -0.009047344 0.071809545 0.0011039621 -0.0057181423
0.005333523 0.038210567 -0.0018888126 -0.006039457 0.004779196 -0.0070202984 0.003063372 -0.0045997915
0.025307404 -9.915504e-05 0.0031817378 0.0025201482 -0.0024856527 0.016788758 0.004382948 0.00334621

transformer.layers.0.0.fn.fn.to_qkv.weight f4 [384, 32]
00000000: 4fc4 e9b9 c44b 2739 2ac2 8ab8 c14b e039
00000010: 87cf 83b8 d598 4d39 7f6c a338 075b bfb8
00000020: 440e 4bb9 46c7 e5b9 c922 d5b9 0f00 7fb9
00000030: f036 5fb7 1c8b 133a a4bf a0b8 0126 ab39
00000040: 4f7d ae38 a9a6 c1b9 d44d 4c39 5606 a039
00000050: 3ff5 e1b7 b108 0339 92b1 0f3a cc79 1eba
00000060: c9d3 24b9 f140 1bb8 86be 51b9 63ce be39
00000070: c42f 13ba 49a2 6f39 e201 1eba 42a5 5b39
00000080: 847f a2b8 3576 05b9 d424 9a36 81b1 9c38
00000090: 533e 29b9 759a 2337 b318 1d39 9cce c8b7
000000a0: 14f0 d838 729a afb7 a184 08b4 fea4 d9b8
000000b0: b150 dab5 010b aab9 f1fe 29b9 f4f6 1bb7
000000c0: 8f97 2f39 62cf 3539 3a4e 0239 e58d 6439
000000d0: a912 92b7 e0b2 4839 4155 2fb8 c53f 8db9
000000e0: 791d 0db9 6851 1239 65ef 2cb9 cf9a 7739
000000f0: 754e 9eb6 c4a5 eb38 72a7 80b9 ff83 4839
00000100: 7d3c d8b9 11ff a038 2fc0 bf38 8019 a1b9
00000110: 2d66 083a df1c 3439 adda 0d39 0225 1eb9
00000120: 8d48 a838 f945 d638 49ab dd38 4ee5 65b9
00000130: e7a2 94b9 cfdf 4e39 1cd8 06b7 54f8 e937
00000140: 458a 56b8 ebcd fe39 4c77 51b9 f93a 77b9
00000150: 3f5f 86b9 94de 2eb9 3bc5 f438 e702 f239
00000160: 60d5 073a b3e3 16b9 84fd 8db9 8c2a 7ab9
00000170: a0a9 7237 5416 26ba 947b 5737 a10c 8ab9
00000180: 32a9 25ba d878 2d39 8444 f4b8 156f 9738
00000190: 7524 9039 b3ae d039 af13 003a 569f a4b9
000001a0: 9c7a be37 4a3e 91b9 bd9b 72ba 7ba0 cdb9
000001b0: ba43 5ab8 0159 173a b462 cab9 4cad 073a
000001c0: a245 aa37 1074 3339 712d 2f39 222c 253a
000001d0: 3c49 c538 f8c8 b838 828f 423a 26f7 1eba
000001e0: 9b16 96b9 b341 8c39 a287 d6b9 9395 8f39
000001f0: fb94 1bba 9539 d438 556d 13ba 971e 2bb8
00000200: f787 6837 fed4 38b8 8efb eab8 3576 b137
00000210: af79 8eb7 c0b9 c6b5 da64 1eb8 80d3 1838
00000220: 6e90 fbb7 e7ed f038 82b5 98b8 17a1 f137
00000230: df38 0738 a69b 2c39 41d6 1537 074b 4a39
00000240: e464 28b8 fd9f 19b8 9d6e 88b8 5842 8a38
00000250: 6f20 d6b8 9cd0 04b9 8f0d fd38 246b 0bb9
00000260: 79ad b937 5010 2e38 2969 0339 2b72 47b9
00000270: dfd5 c538 6edb 0539 3886 aeb7 ab5a 8737
00000280: 2141 22ba 9aef ac39 3419 92b9 e680 a839
00000290: aaee 4639 aa42 aa39 9b0a b839 847e 79b9
000002a0: 498b 42b9 bf75 9fb9 acbc 91ba c0fa d4b9
000002b0: 5e37 87b7 f47d 993a 6b41 20ba 5124 ec39
000002c0: 070f 12b8 d697 d1b9 bd61 7d38 a524 4e3a
000002d0: f755 5038 3f88 6139 0e9a 873a 339d 81ba
000002e0: 146a a4b9 f937 a339 578b 04ba cf24 123a
000002f0: 1304 5dba c843 a139 e54f 77ba 1d72 e438
00000300: 7f19 36b9 0d04 deb7 a06d 77b7 6125 e1b7
00000310: 1a04 2c39 9d09 0439 e759 4839 6546 2638
00000320: 674e 1f39 accd 3eb8 b30a d2b8 5eb5 e7b7
00000330: 437f 2237 88d8 d138 a83d 9238 11a6 9538
00000340: 7901 1439 c691 9c38 9431 bc38 b56e f138
00000350: 3530 27b9 1db6 cfb8 f350 81b8 59df 6c39
00000360: f53a b838 7464 3cb9 9c16 0ab9 3ebc 1438
00000370: 9e16 6a39 1512 97b9 324e dd38 549c 12b9
00000380: c58d 5f39 d902 a3b8 6113 4539 a6f4 acb9
00000390: 505d 8d38 1370 9a38 6af6 c438 47d6 b538
000003a0: d78f 6938 fe48 5337 d106 d139 a391 4cb7
000003b0: 85c0 cb38 7aa5 22ba 7c2b 0039 d688 d9b8
000003c0: d650 abb8 7361 fa39 d140 29b9 2da0 ccb9
000003d0: c33c 37b9 ae61 f2b8 6ef1 dbb9 8d32 ca39
000003e0: 5fff 9139 dc0d 6bb9 fd2e d938 39dc afb8
000003f0: b846 ef39 e8a7 a1b9 fafb b639 370b fab8
-0.00044587484 0.00015954586 -6.616519e-05 0.0004278105 -6.285222e-05 0.00019607258 7.792655e-05 -9.124545e-05
-0.00019364903 -0.00043826754 -0.00040652443 -0.00024318717 -1.3304627e-05 0.0005628334 -7.6650904e-05 0.00032643977
8.320307e-05 -0.00036936 0.0001948395 0.000305223 -2.6936292e-05 0.00012496371 0.0005481477 -0.0006045371
-0.00015719155 -3.701536e-05 -0.00020002769 0.00036393394 -0.00056147226 0.00022853272 -0.0006027502 0.00020947031
-7.7485136e-05 -0.00012727904 4.593845e-06 7.471722e-05 -0.00016140314 9.751519e-06 0.00014981888 -2.3938068e-05
0.00010344401 -2.0933545e-05 -1.2714237e-07 -0.000103780985 -1.626575e-06 -0.00032433125 -0.00016212069 -9.296218e-06
0.0001674576 0.00017338761 0.00012426908 0.00021796634 -1.7413246e-05 0.00019140122 -4.180265e-05 -0.00026941128
-0.00013457787 0.00013953971 -0.0001649238 0.00023613426 -4.7179005e-06 0.000112365495 -0.0002453882 0.00019122659
-0.00041243798 7.676904e-05 9.143387e-05 -0.00030727312 0.00052032137 0.00017176893 0.00013528271 -0.0001508184
8.024378e-05 0.000102173486 0.000105700055 -0.00021924564 -0.00028350131 0.00019729066 -8.037339e-06 2.7891401e-05
-5.115035e-05 0.00048600076 -0.00019976235 -0.00023577725 -0.00025629436 -0.0001667685 0.00011671564 0.0004616
0.00051816367 -0.0001438994 -0.000270825 -0.00023857708 1.4463818e-05 -0.00063357246 1.2843771e-05 -0.0002633082
-0.00063194626 0.00016543583 -0.00011647589 7.220932e-05 0.00027492983 0.00039803013 0.00048857456 -0.00031399232
2.270686e-05 -0.00027702964 -0.0009254774 -0.00039220214 -5.2038326e-05 0.00057734555 -0.00038601982 0.00051756646
2.0298005e-05 0.00017114007 0.00016706229 0.0006300827 9.407333e-05 8.811237e-05 0.0007421897 -0.00060640497
-0.00028627072 0.0002675183 -0.00040918315 0.00027386527 -0.00059349806 0.00010119673 -0.0005623897 -4.0798066e-05
1.3859934e-05 -4.4067383e-05 -0.00011204845 2.1155089e-05 -1.6984382e-05 -1.480621e-06 -3.776406e-05 3.64366e-05
-2.9988787e-05 0.000114884046 -7.281733e-05 2.8804452e-05 3.2239474e-05 0.00016461182 8.930977e-06 0.00019292171
-4.0148283e-05 -3.6627043e-05 -6.505589e-05 6.59271e-05 -0.000102103564 -0.00012666214 0.000120665056 -0.00013295986
2.2134498e-05 4.1500025e-05 0.00012532309 -0.0001902065 9.4335286e-05 0.00012765612 -2.0804917e-05 1.6135475e-05
-0.00061895145 0.00032984914 -0.00027866068 0.00032139494 0.00018971661 0.00032474595 0.00035103117 -0.00023793621
-0.0001855317 -0.0003041457 -0.0011118851 -0.00040622614 -1.6119036e-05 0.0011710511 -0.00061132637 0.00045040486
-3.4823108e-05 -0.00039976713 6.0410926e-05 0.0007863737 4.9671125e-05 0.00021508428 0.0010345594 -0.0009888768
-0.00031359552 0.00031131486 -0.00050561636 0.0005574943 -0.0008431088 0.00030758814 -0.00094342075 0.000108931425
-0.0001736637 -2.6466349e-05 -1.4747871e-05 -2.6839496e-05 0.00016404726 0.00012592082 0.00019106978 3.9643044e-05
0.00015192629 -4.5491077e-05 -0.00010015573 -2.7621802e-05 9.685583e-06 0.00010006229 6.973307e-05 7.135806e-05
0.00014114928 7.465812e-05 8.973773e-05 0.00011512396 -0.0001594432 -9.9044504e-05 -6.166277e-05 0.00022589917
8.784785e-05 -0.00017966499 -0.00013169128 3.5461264e-05 0.00022324405 -0.00028814437 0.00010552666 -0.00013981882
0.0002131975 -7.772976e-05 0.00018794603 -0.00032988674 6.740785e-05 7.364168e-05 9.3919065e-05 8.670665e-05
5.568549e-05 1.2593575e-05 0.00039868665 -1.2193256e-05 9.715654e-05 -0.00062044675 0.0001222323 -0.00010372854
-8.168972e-05 0.0004775632 -0.00016141242 -0.00039029252 -0.00017474875 -0.000115576535 -0.00041950814 0.00038566106
0.00027846821 -0.0002241651 0.000103561186 -8.38567e-05 0.00045638322 -0.00030833413 0.00034901482 -0.00011923018

transformer.layers.0.0.fn.fn.to_out.weight f4 [32, 128]
00000000: dc1e 8b3c cb62 c23c c63a 55bc 658f b4bc
00000010: 12f7 a6bc a287 67bb 745f a2bc 3e59 15bd
00000020: 07fb c8bc 203d 8cbb 6ffa 9f3b c760 0c3d
00000030: 3cf6 893a 264d 94bc b36e 3cbc c85c 7f3c
00000040: 2373 52bb 5c70 78bb ba79 273b 5eb2 853d
00000050: e73c 413b 5c71 b3b9 51de fdbb 45a5 c2bc
00000060: e4a2 123d 75f7 833d 89e8 61bc 572a 8bb9
00000070: 5579 ef3b 7380 67bc de0e 953c 0683 68bc
00000080: 3830 bfbc 6519 9d3c 05d6 4dbc 888a b03c
00000090: 9f70 a23c cdf7 723c 41df 153c 0f45 5a3c
000000a0: 65c1 ae3b e1b8 9fbc a9d4 2a3c 4fea 9e3d
000000b0: 6b05 6cbc 369d 93bc c84e 5c3d a677 b4bc
000000c0: c4f9 893c 8010 0c3d 0cae debb 3c5b 1dbb
000000d0: 17f3 72bb baae 7fbb 472a 88bc 6f13 543c
000000e0: 3a3d bcbb 0f73 b2bc 28d1 52bc cf1b a73c
000000f0: 731d 34bc 8df2 cabb 46f4 0cbb bb38 b4bb
00000100: 8518 cfbb d444 763d 8b7b 973c 5a75 2c3d
00000110: f443 03bd 69e7 943c 3c36 303d 6366 acbc
00000120: a4e0 71bc b522 a9bc 131c 9a3c 9957 6ebd
00000130: b36d 9cbb 12fa d93b 0e59 c13c 48f6 0fbc
00000140: 2a7f c3bc bdcd 4bbb 2422 343d 7506 e9bc
00000150: d4f4 093d c787 733d 5b8a 40bd 5182 febb
00000160: c0e5 4abd 4c15 41bd 5a9e 3a3a df79 33bd
00000170: ff89 493d fb0d 1a3d 8a90 59bc 86e6 5ebd
00000180: 3ef3 913d 3c56 0bbb 5684 81bb f6ed 533d
00000190: bf45 073b 4c34 e43b cedc 7e3d 2ae9 09bd
000001a0: 6be7 b43b 25db 25bc 30d5 5c3c 1fd0 a3bd
000001b0: 2a88 3a3b 3fc1 49bc 1bf8 bbbc 197a eb3c
000001c0: cf2f 82bc 75ad 0cbd ae03 343b 82cb 74bd
000001d0: 7c12 333d 5f00 253d a188 9dbc 5c53 113c
000001e0: 07f3 61bd 7343 163b f370 343d 04da 1cbd
000001f0: 1f3f a53c e1e9 febc 6cec 873c 5f5a d7bc
00000200: 181e 813a 07c8 09bd 6db7 e7bc 69db 043d
00000210: 1159 ebbc 666b 3a3d b3fe 11bc 192a d3bc
00000220: 7396 f03c fb40 81bd 4577 873b 0be3 1f3d
00000230: 32f8 4abd 61d9 febc 89b5 2dbd a4f2 183d
00000240: dd94 3fbd b701 133c 9441 14bc 530f 87bc
00000250: cf0c 1abd 166b 533b 7806 f1ba 372e c93a
00000260: c1e8 50bd 997a 77bc 8235 543c 5c1d 7dbc
00000270: 8171 2a3c 95c5 2ebc fadd 283d 99d2 7c3c
00000280: 652f 073d b294 00bd 3d75 073c e27d c33c
00000290: 5903 083c 0731 2bbc cacb 483d 05ac 14bd
000002a0: aa01 5b3c 8037 74bb 480a 85bb 5cf2 b13c
000002b0: 8f92 c53c c453 533b 2d9b 8b3d c821 3b3d
000002c0: 1632 16bd c357 273d dc91 4fbc 3844 e93c
000002d0: 7a9c fdbc cfd9 0e3d 9257 00bd 005b 913d
000002e0: 0b48 cabb ca3b 043d 37ba bb3c 9689 053d
000002f0: d3c3 193d 24ae 4dbc ca69 213d 978c 1e3c
00000300: bed6 5bbd d3ce 4cbd a8df 1ebd e472 ff3c
00000310: c491 303d cf83 973d 1d45 193d 4fd3 0d3d
00000320: 88a0 3c3c 0508 81bc d9ad 15bd b574 333d
00000330: c951 23bc f0bc 003b 671f e13c e366 9939
00000340: e276 e33c 7fa5 cd3c 1d39 18bd 584a 0e3d
00000350: c54b 9abc 734c 783b fd4a 73bc 51fe 57bd
00000360: cf16 043c db5e 9c3c 26f2 49bc 6d54 a9bc
00000370: 5db4 9dbc 9cdb aabc 2d18 dfbb f33f 0b3d
00000380: c114 f5bc e9c0 0f3d 0365 8e3a 617f 6abc
00000390: e2f9 2fbc e9c6 0e3b d1eb 26bd 342f 3c3d
000003a0: 0c5b 893c 8afc a7bc 23aa 9e3c 87f1 363d
000003b0: 7fd7 993c a534 14bc 9a1b 2ebb cd02 883c
000003c0: 5a6f 753d c227 8d3c ccd1 0ebc 0fa5 083d
000003d0: fc51 c83c be22 cabc 1f56 5bbc bb66 883b
000003e0: f2a3 043d 0d22 933b 27f3 8abc cb6c ba3c
000003f0: cb0d 863c dc8e 79bb 58b3 ad3c 3e5f 8abc
0.016982488 0.023728749 -0.013014501 -0.022041032 -0.020381484 -0.0035328646 -0.019820906 -0.03646206
-0.024533762 -0.0042797476 0.004882149 0.03427198 0.0010525654 -0.018103193 -0.011501002 0.015586086
-0.0032112084 -0.0037908768 0.0025554732 0.065281615 0.0029485764 -0.00034226 -0.0077474494 -0.023760447
0.035799876 0.06443683 -0.013788351 -0.00026543692 0.007308165 -0.014129746 0.018195566 -0.014191395
-0.023338422 0.019177148 -0.012563233 0.021550432 0.019829093 0.014829588 0.009147466 0.013322129
0.005333113 -0.019497337 0.010426679 0.077595346 -0.014405589 -0.0180193 0.05378607 -0.02202971
0.01684273 0.034195423 -0.0067956503 -0.0024010679 -0.0037071162 -0.0039014057 -0.016621722 0.012944086
-0.0057446035 -0.02178338 -0.01286725 0.020399002 -0.010993349 -0.006193465 -0.0021507903 -0.005499927
-0.0063200616 0.060124233 0.018491527 0.042104103 -0.032047227 0.018176751 0.043020472 -0.021044916
-0.014763031 -0.020646432 0.018812215 -0.05818901 -0.0047738194 0.006652125 0.023602035 -0.008786745
-0.023864347 -0.0031097971 0.04397787 -0.028445462 0.033680752 0.05945566 -0.047006946 -0.007767
-0.049535513 -0.04713945 0.0007118933 -0.043817397 0.04920387 0.03761099 -0.01327909 -0.054419063
0.07126473 -0.0021261116 -0.0039525433 0.05174061 0.0020640937 0.006964242 0.062222295 -0.03366963
0.0055207512 -0.010123049 0.013478562 -0.0799868 0.0028462508 -0.01231414 -0.022945454 0.028744744
-0.015891938 -0.03434511 0.0027468014 -0.059764393 0.0437188 0.040283557 -0.019230189 0.008869972
-0.05516341 0.0022928386 0.04405303 -0.038293853 0.0201717 -0.031117382 0.016592227 -0.02628821
0.0009850888 -0.033638027 -0.028285706 0.03243581 -0.028728994 0.04551258 -0.008910823 -0.02577691
0.029368615 -0.06311222 0.004134091 0.039034884 -0.049553104 -0.031109514 -0.042409454 0.037340775
-0.046772826 0.008972577 -0.009048838 -0.0164868 -0.03760987 0.0032259873 -0.0018388769 0.0015348856
-0.05100322 -0.015104913 0.01295221 -0.015448894 0.010403038 -0.010667224 0.04122732 0.01543107
0.033004183 -0.031391807 0.008267698 0.023863737 0.008301579 -0.010448701 0.049022473 -0.036296863
0.013367096 -0.0037264526 -0.0040600635 0.021722011 0.024117736 0.0032245973 0.06816707 0.045686513
-0.03666886 0.04085518 -0.012669053 0.028474912 -0.030958403 0.034875687 -0.031333514 0.07097435
-0.006173139 0.03228358 0.022915943 0.032601915 0.03754027 -0.012553725 0.03940753 0.009677074
-0.05367159 -0.05000193 -0.038787514 0.031182714 0.043107763 0.07398187 0.037419427 0.034625348
0.011512883 -0.015750894 -0.036542747 0.043812472 -0.00996823 0.0019643866 0.027480794 0.0002925909
0.027766649 0.025103329 -0.037163842 0.03473887 -0.018834958 0.0037887364 -0.014849422 -0.05273277
0.008062079 0.0190882 -0.012325799 -0.02067014 -0.019251043 -0.020856671 -0.006808302 0.033996534
-0.029917123 0.035096083 0.0010863844 -0.014312596 -0.010740729 0.002178604 -0.040752236 0.045943454
0.016767047 -0.020506162 0.019368237 0.044663932 0.018779514 -0.009045755 -0.0026566745 0.016602898
0.059920646 0.017230872 -0.008717012 0.033360537 0.024453156 -0.02467477 -0.013387232 0.004162637
0.032382913 0.004490143 -0.016961647 0.022756955 0.016363999 -0.0038079536 0.021203682 -0.016891118

transformer.layers.0.0.fn.fn.to_out.bias f4 [32]
00000000: 011d f9b8 5158 50bc 3460 bbbb f040 4c3c
00000010: e2b7 04bd 512e 11bd 3358 3fbc 6f52 30bd
00000020: 90ca cc3c 51e2 f33c a1ce 0ebc cb37 bcbc
00000030: a7be 1dbc c625 023c c749 1bbc a789 37bc
00000040: c868 cabc cbeb 983b 76d2 70bb 1101 fcbb
00000050: 2d6f 063d a2f2 cd3a 2e6e 9d3c b05f 12bc
00000060: eff9 a13c 8487 52bc bf14 013c 2324 073c
00000070: 64df 2dbc c6cd 863c fc25 2ebc b58f a13b
-0.00011878648 -0.012716369 -0.0057182554 0.012466654 -0.032401927 -0.03544456 -0.011678743 -0.043047365
0.024998933 0.029771002 -0.008716256 -0.022975823 -0.009627975 0.007943576 -0.009478039 -0.0112022525
-0.024708167 0.0046667806 -0.0036746538 -0.007690557 0.03282087 0.0015712569 0.019217577 -0.0089339465
0.019772498 -0.012849692 0.007878481 0.008248362 -0.0106123425 0.016455542 -0.010629173 0.0049304613

transformer.layers.0.1.fn.norm.weight f4 [32]
00000000: c1ab 0a3e 95e7 403e 6ba7 cc3d 7c09 0e3e
00000010: 9791 773e 835d 2b3a 9990 10ba 7de3 a43d
00000020: 3a22 2b3e c030 0f3e 9bfa 293d ec09 a23d
00000030: dc48 e73d 370b 203e f370 503e ca0e fa3d
00000040: 400a f53d 5af0 5b3e d44e 1d3e 52c7 383e
00000050: 4a13 263e dc45 793d d397 4a3d 45a5 953e
00000060: 3232 3e3e a424 143e bacb 1a3e a226 2b3e
00000070: 1477 1c3b b9eb 523e d212 303e 4610 063e
0.13542081 0.18838342 0.0999287 0.13870806 0.24176632 0.00065370667 -0.0005514711 0.080512024
0.16712275 0.1398344 0.04149876 0.07912049 0.11293194 0.15629278 0.20355587 0.12209852
0.11964846 0.21478406 0.15362102 0.18044785 0.16218296 0.06085764 0.049461197 0.29227653
0.18573835 0.14467102 0.15116778 0.16713956 0.0023874687 0.20597734 0.1719468 0.13092145

transformer.layers.0.1.fn.norm.bias f4 [32]
00000000: edcc b03b 0db6 f23c eed2 a93c f332 40bd
00000010: b683 89bc 8169 e43b 901a a8ba 5406 4d3d
00000020: c053 1339 dee0 cdbc d074 923c a20c d63c
00000030: 3e90 b0bc 443f 573b 552e 3f3d 2a73 a93c
00000040: 0cdf 27bc 389e 0cbd 8f56 373c d49c 3c3d
00000050: a5c7 8cbd c4be 9bbb ce2c 4dbd fd94 04bd
00000060: 4a79 f3bc 6f81 fabb 12fb 2d3c 460d 86bc
00000070: d485 3c3a 3d76 a2bb 597f 3abc 5b38 3439
0.005395523 0.029627824 0.020730462 -0.04692359 -0.016786437 0.006970585 -0.0012825299 0.050054863
0.00014050212 -0.02513164 0.017877966 0.02612907 -0.021553155 0.0032844106 0.046675045 0.020684797
-0.01024605 -0.034330577 0.011190071 0.046048 -0.06874017 -0.0047529656 -0.050091557 -0.03236865
-0.029720921 -0.007644824 0.010618942 -0.016363751 0.0007191573 -0.0049579428 -0.011382901 0.00017187132

transformer.layers.0.1.fn.fn.net.0.weight f4 [256, 32]
00000000: bd44 98bb 6907 fdbb 8c0f 4c3c 0586 81bb
00000010: 8a07 56bb 72dd 873b 475f 01ba 2a2f 5b3c
00000020: 8ea1 dcbb 4f27 023c 49c1 6dbb cd7a a93b
00000030: 0c67 513c 61da 5bbc 772a 193d 2591 553c
00000040: fac0 1fbc ec1b c4bc f7c1 acbb 48b8 8c3c
00000050: a070 973c 9a45 1bbc 403f c7bc c9fd 3ebd
00000060: 9ef9 5bbb 7992 773c b6a7 d1bb 47fd 6fbc
00000070: 305d 0e3a 14c5 353c cfd4 c13c 383b c7bb
00000080: 0b70 83bb 5ef9 f23b b334 253c 0864 cf3c
00000090: f79a 3fbb 2815 e73a 76ba f6ba a57a ce3b
000000a0: 9d05 a6bc 3c02 9f3b b1f6 de3a bfed 8c39
000000b0: e593 a0bc fd3d 5b3c e5b4 24bd 46fd 8b3c
000000c0: 546d 183c 8b96 253c dd77 2f3c a617 943a
000000d0: a9f8 bb3a 4331 83bb 6ff1 aa3b 8054 e03c
000000e0: c0cd 233c 89bf 193b d815 0e3b b8da d93c
000000f0: 8bd9 00ba b961 87bb 6fa6 2abc 8eb9 45bc
00000100: 76e5 ecbd f381 85bd 4992 0dbe 37f6 573e
00000110: a019 003e c252 95bc 9812 353c 896e d7bd
00000120: b787 1f3e 5f9a b73d 0548 5abd 7e69 efbd
00000130: 6dc0 303e f571 1a3d c465 31be e223 2dbe
00000140: bae0 c2bd 8816 3d3e 5f18 e6bd bc81 e7bd
00000150: fe28 023e 7f60 10bd 80bd c6ba 83b4 30be
00000160: 9302 393e 7f0f a1bd 396b 4ebd fbb1 9e3c
00000170: f923 e9b9 e233 4f3e 7a5a 5b3d b026 823d
00000180: f0f0 a23c 19b5 903c 6664 ccbc 5e04 023c
00000190: f96e 203c 829a 2ebc 805b 513a 4ed2 1cbd
000001a0: c661 943c 017b 5aba 671f 513c 5c19 40bc
000001b0: 8a55 05bd 6c91 033d 9bbf 8bbd 58c9 01bd
000001c0: b3c4 c03c e77b 463d 676f ba3c 4d28 2abd
000001d0: 5e8c 1fbd 3eb9 a43c b5ea 5c3d dc70 b83d
000001e0: 778e 8d3a 8da5 21bd d256 9b3c ad8a ce3c
000001f0: 362f 0ab9 e740 03bd fc3d 01bd f4c2 db3c
00000200: 0eb0 f4bc b3be a6bc cb97 ce3c 2ede b5bb
00000210: bf49 ecba 2e1e da3b 6def 3aba bf0a d33c
00000220: 794e 76bc 66ed 013b 30b4 3dbc 94d7 883b
00000230: d851 de3c 1ec5 c7bc d5c6 7d3d 5302 e33c
00000240: 8936 91bc b9b2 18bd 691f 90bc ae50 ba3c
00000250: ae3a 1e3d 7d9d 63bc 84c8 0bbd e61d 81bd
00000260: 5a3e 213b 83ab f83c a008 8ebc 4aac 94bc
00000270: 97d5 213a 9cde 613c c1f6 2e3d fc38 9ebc
00000280: 4429 643a f705 703c 6150 50bc b578 673c
00000290: 103c 143b 463e 83bb 238a c7b8 cfd3 e0bc
000002a0: 1ca7 123b 65f4 cdbb 037e 103a 21d4 92bc
000002b0: fa3f 00bd cdb2 f93c fc73 85bd 548b 2dbc
000002c0: 0a9c 9b3c 23f3 293d 61d3 823c c5b0 edbc
000002d0: b75b c3bc 960d e63b 820e 493d 99c0 ac3d
000002e0: 3ef5 7e3c c888 c7bc 9e09 273c d7f6 1c3d
000002f0: 2236 e8ba daf0 c8bc 0f60 76bc 5c53 1a3c
00000300: 3cd1 2c3c c6a3 a43d eee9 363c f968 f6bd
00000310: 8051 97bc c692 1e3d 172b fabb bf2d 7d3d
00000320: f028 ecbd 4393 97bd 6530 603d 037b fe3d
00000330: 6b12 75bd d04e 25bb d26d 7d3c 6f69 433d
00000340: 29f6 f73d 8ddd b4bd ee63 6f3d 2797 503d
00000350: aa09 76bd 7d06 4f3d f3d8 e23c 46b5 c73d
00000360: 5732 bebd 31ae 0bbd d5b3 c33d 4921 9cbd
00000370: 3ed3 b2bc d4b5 abbd 4d1f 83bb f260 15be
00000380: e477 79bd 4d44 53bc fe52 803d c1e6 333d
00000390: f294 e7bc 99a6 653c 03c3 84ba 1ad0 2a3d
000003a0: b89c a7bd 54a5 d13b 3dc1 6cbc 78de 1f3a
000003b0: 3c2b 5ebc 4596 103c 2a81 f63b 3b58 953d
000003c0: a1c7 20bc 4628 65bc a5cd 1f3c 128c 0d3d
000003d0: 9060 433d 4b55 42bd 4cad c9bc 3a7f ffbc
000003e0: a8db 093d 49ea 163d 9280 98bc 0a18 553d
000003f0: 2e67 ca39 f771 7e3c 15be 283d dfd1 0dbd
-0.004646866 -0.0077218306 0.012454879 -0.003952744 -0.0032658302 0.0041462714 -0.0004935157 0.013377944
-0.006733126 0.007943942 -0.0036278537 0.0051721097 0.012780916 -0.013418765 0.037394013 0.013035093
-0.009750599 -0.023939095 -0.005272146 0.017177716 0.018486321 -0.0094770435 -0.024322152 -0.046628747
-0.0033565531 0.015110605 -0.0063981665 -0.014647788 0.0005430756 0.01109435 0.023661045 -0.0060800575
-0.0040111593 0.007414981 0.010083365 0.025316253 -0.0029236653 0.0017630206 -0.001882388 0.0063012415
-0.020266348 0.0048525613 0.0017010776 0.00026880016 -0.019601772 0.013381478 -0.040211577 0.017088544
0.00930341 0.010106693 0.01070973 0.0011298552 0.0014341074 -0.004003675 0.0052167694 0.027384043
0.009997785 0.002346011 0.00216805 0.026593551 -0.0004915229 -0.0041315225 -0.010415657 -0.0120681655
-0.11567204 -0.065189265 -0.13825335 0.21090017 0.12509775 -0.018227939 0.011051796 -0.1051913
0.15579115 0.08964991 -0.05329134 -0.11690043 0.17260905 0.037706334 -0.17323977 -0.1690822
-0.095155194 0.18465626 -0.11235117 -0.11304042 0.1271095 -0.035248276 -0.0015162677 -0.1725636
0.18067388 -0.07864284 -0.050395224 0.019371977 -0.00044468025 0.20234635 0.053553082 0.06355035
0.019890279 0.01766448 -0.024950217 0.0079356115 0.009792083 -0.010656955 0.0007986352 -0.0382865
0.018113028 -0.0008334369 0.012763835 -0.011724796 -0.03255228 0.032121107 -0.06823655 -0.031686157
0.023531293 0.048458006 0.022758199 -0.04154234 -0.038952224 0.020107862 0.05393477 0.09005901
0.0010799904 -0.039464522 0.018962298 0.02521261 -0.00013178293 -0.032044318 -0.031553254 0.02682636
-0.029869106 -0.020354604 0.025218865 -0.0055501675 -0.0018027349 0.0066564297 -0.0007131014 0.02576196
-0.015033358 0.0019825338 -0.011578605 0.0041760895 0.027138636 -0.024385985 0.0619572 0.02771107
-0.0177262 -0.03727982 -0.017593103 0.02274355 0.03863018 -0.013892529 -0.034126773 -0.06304531
0.0024603815 0.03035522 -0.017338097 -0.01814856 0.000617349 0.013785984 0.04271579 -0.019314282
0.0008703659 0.01464986 -0.012714476 0.0141279 0.0022618808 -0.0040052263 -9.5147894e-05 -0.027444748
0.0022377437 -0.0062852376 0.0005511941 -0.017923417 -0.031311013 0.030480767 -0.06516263 -0.0105923
0.018995304 0.04149164 0.015969934 -0.029014954 -0.023847444 0.0070206625 0.0490861 0.084351726
0.0155614 -0.024357215 0.010195164 0.038321342 -0.0017716328 -0.02452891 -0.015037551 0.0094192885
0.010547932 0.0803905 0.011164172 -0.12031741 -0.01847148 0.038714193 -0.0076345312 0.061811205
-0.11531246 -0.07401135 0.054733653 0.124258064 -0.059832018 -0.0025223978 0.015468078 0.04770797
0.12107498 -0.0883132 0.05844491 0.0509254 -0.06006781 0.050543297 0.02769134 0.09751372
-0.09286945 -0.03410167 0.095557846 -0.07623536 -0.021829244 -0.0838429 -0.004001534 -0.14587763
-0.060905352 -0.012894702 0.062658295 0.043921236 -0.028269265 0.014016771 -0.0010128919 0.041702367
-0.081841886 0.0063978825 -0.0144503685 0.0006098519 -0.013560113 0.00882489 0.007522722 0.07292219
-0.00981322 -0.013986653 0.009753619 0.03455741 0.04769951 -0.047444623 -0.024618767 -0.031188596
0.033656746 0.036844525 -0.018615995 0.05202488 0.00038605317 0.015530101 0.0411969 -0.034623977

transformer.layers.0.1.fn.fn.net.0.bias f4 [256]
00000000: 3584 96b8 85ee 25bb b4a3 2abb 39cc 703a
00000010: 91a8 dd3a 686d 4f3b a0e4 eb3c bf59 d0ba
00000020: d2d4 b4bb 3f6f 533d b4aa 77bb ac33 15bd
00000030: 11d7 8c3a ab1a eebb 2ea7 42ba 7844 f63a
00000040: 7fe4 d7bd 074a 9f3d 9966 e3ba 465f 27ba
00000050: 8666 ebbb 377b c13b 9377 babc c961 3a3a
00000060: 5494 6e3c 8251 78bb 7c3b 8abb 46fe 803b
00000070: 02ad a93b 2c2b ba3b 6207 223b 0235 1d3c
00000080: 85a7 fd38 731e a93b dc03 89ba 49d1 43bb
00000090: 766e bb3b 63d3 97bb bdc7 5f3b a0f8 973a
000000a0: 3947 e83b 37f1 36bb 2d46 24bb e8ae 3e3d
000000b0: 63ac 4e3a 4131 f33c e3ef 28bc a9c8 acba
000000c0: 9e4b 81ba fc78 3eba 8527 9338 181a 93ba
000000d0: 5f1f b5ba 80b9 ca3a 6b30 21ba 2b87 f53b
000000e0: b0e2 3c3c b1c7 3abb ca2d 3c3b 48b4 d8bb
000000f0: c1d4 c4bb f5cc f03a b4f4 0abb 7a47 02bb
00000100: db13 87b9 f913 e43b cee2 b23a 0b6b 743d
00000110: bb57 0abb bb6b 3cbb 7379 1ebc f980 91ba
00000120: 7dc6 8e3c 30af b1bb 8a2a c6ba dfe2 ccbb
00000130: 01aa 743d 912a 983c 9088 fa3c 2f14 953b
00000140: 3a62 6e3a 549c 573c 4002 62bc a0d6 b3ba
00000150: 3111 423b df20 12bb 932b 2fbc cc67 bebd
00000160: 644f 24b9 766a dc3d 8a09 0e3a 8b11 3f3c
00000170: 8485 19b9 a5d9 25bb 76b9 8cbc 169d 433c
00000180: 79a3 2eba 1063 9f3b 4f1d 733b 620f 3cbb
00000190: 7901 293b a42b 62bb 63d9 90ba 39a8 9fba
000001a0: 3fd9 0239 7886 ac3a a7f9 4ab7 56ab 84b9
000001b0: a378 1e3b 55cf 1e3c 25d9 c7bc 5d8f debb
000001c0: 95c3 cebc 2637 d93a daaa fb3c 9b0b ac3a
000001d0: 09f5 9ebb f462 f0bb 2534 a1ba 4dea 93bd
000001e0: abb7 033d 88ec deb9 bb48 deb9 5403 28bb
000001f0: 5ff1 8eba 2385 95bb b626 5d3b b275 dcb9
00000200: 0786 2d37 ec02 283b 2f7b fd3d 5b2f 5fba
00000210: bb4c e03a 8b8c 53bb 279b a9bd b2f1 d93a
00000220: b0ce ac3b 3a23 e13d 290c 233b c9e6 05bd
00000230: 7610 8b3a 330e eebb a1c6 4e3a a8f0 e83a
00000240: 0523 ac3c b922 133d c406 ea3a 00b3 273a
00000250: f6a2 96bb 7ab7 bdbb 3b36 29bc 1334 47ba
00000260: 9afb 4ebc 053d 82bb 6682 8abb 7054 833b
00000270: ef6e a53b 684e c6bb e652 1f3b 0370 b03b
00000280: 016a 85b9 4842 ab3b 273d a2ba c4c7 423b
00000290: 946d c03b ffd3 923b ecf2 3a3b 84e8 8e3a
000002a0: 7ada d7bb e433 2c3b 28fd d93a b542 483d
000002b0: bc0c f339 03b0 003d 9cbd 29bc 9735 aeba
000002c0: 2657 4fba 4e25 243a 0a25 cdb9 360c b1b9
000002d0: 773b afba 7c75 c13a a393 273a 468b 513d
000002e0: 69d0 45bc 02f4 383b 48bc 3d3b 90d7 d9bb
000002f0: c3d5 c4bb 3217 cc3a be84 f9ba ff37 feba
00000300: f534 beb9 f7f0 e43b b8e5 a53a 0f70 f03c
00000310: a26e 13bb d6de 47bb 7000 4c3d 555f 1fba
00000320: 0fa0 453d 117d adbb 359d bb3a 1d17 cbbb
00000330: 4dad 09bd ef0c a0bb 509f 1a3d c5a2 95bb
00000340: e985 693a b66e 54bc 75ed 93bc 07ec a73a
00000350: ea33 393b a278 193b a6be 2bbc aed0 9c3d
00000360: 8769 4f3a 5ab0 5e3d f243 d53a 02d2 413c
00000370: 4b62 f7b9 9cf7 2ebb 7d8a 8cbc 2f8a 083d
00000380: 93e6 8eba 6eaf aebb 096e 6c3b 384b 37bb
00000390: f4d3 8f3a 7f2b 663b eab3 31ba 83be 2aba
000003a0: c511 32bb 6703 6bba a3b2 f139 7384 95b9
000003b0: 8629 1b3b 5219 1dbc d35a 8ebc b816 dc3b
000003c0: dce9 023d ba48 b53a 7311 853b ac48 8aba
000003d0: 251e 99bb f86e f23b 3b48 b2ba f803 543d
000003e0: d0c4 cbbc 77d5 9aba c58b f239 7657 2cbb
000003f0: 7d31 a93a 03d1 96bb 394f 5dbb dd58 21b9
-7.177183e-05 -0.002531917 -0.0026037516 0.0009185705 0.0016911199 0.0031650905 0.02879554 -0.0015895887
-0.005518534 0.051619764 -0.0037790956 -0.03642623 0.0010745247 -0.0072663627 -0.00074254244 0.0018788716
-0.10541629 0.077777915 -0.0017349302 -0.0006384741 -0.0071838526 0.005904581 -0.022762096 0.0007109908
0.014561731 -0.003789038 -0.004218517 0.0039365618 0.005178095 0.005681416 0.0024723639 0.009595158
0.00012095183 0.0051611005 -0.0010453421 -0.0029879382 0.005719955 -0.0046333536 0.0034146153 0.0011594482
0.0070885685 -0.0027914771 -0.0025066242 0.046553522 0.0007883964 0.029686572 -0.0103111 -0.001318236
-0.0009864455 -0.0007265953 7.016867e-05 -0.0011222987 -0.0013818553 0.001546666 -0.00061488774 0.00749292
0.011528656 -0.0028500373 0.0028713816 -0.006613288 -0.0060068076 0.0018371629 -0.0021202983 -0.001987903
-0.00025764 0.0069603887 0.0013647915 0.059672397 -0.002110942 -0.0028750736 -0.00967251 -0.0011101059
0.017428631 -0.0054224953 -0.0015118879 -0.006252631 0.05973244 0.018574985 0.030582696 0.004549525
0.00090936164 0.01315983 -0.013794482 -0.001372058 0.0029612298 -0.0022297425 -0.010691541 -0.092971414
-0.00015669834 0.10762493 0.00054182915 0.011661897 -0.00014640955 -0.0025306728 -0.017178278 0.011939308
-0.00066619326 0.004864104 0.0037096327 -0.0028695692 0.0025788231 -0.0034510875 -0.0011051114 -0.0012180872
0.00012478697 0.0013162633 -1.2098265e-05 -0.00025304657 0.0024180792 0.0096929865 -0.024395535 -0.0067919926
-0.025239745 0.0016572222 0.030721117 0.0013126017 -0.004850988 -0.007336015 -0.0012298865 -0.07222424
0.03215758 -0.0004251937 -0.00042397328 -0.002563675 -0.0010905674 -0.0045629903 0.0033744997 -0.0004204936
1.0342809e-05 0.0025636507 0.12377011 -0.00085138314 0.0017112711 -0.0032279815 -0.08281546 0.0016627817
0.0052736625 0.10993047 0.0024879074 -0.032690797 0.0010609764 -0.0072648763 0.00078878744 0.0017771916
0.021012792 0.035921786 0.00178548 0.00063972175 -0.004597063 -0.0057896944 -0.010327871 -0.0007599007
-0.012633229 -0.0039745593 -0.0042269705 0.0040078685 0.0050486247 -0.006051827 0.0024310886 0.0053844466
-0.00025446716 0.005226407 -0.0012377844 0.002972112 0.0058724377 0.0044808383 0.002852614 0.0010903035
-0.0065873237 0.0026276046 0.0016631233 0.04889174 0.0004635806 0.031417858 -0.010360148 -0.0013291118
-0.00079094095 0.00062616623 -0.00039128243 -0.0003376917 -0.0013369162 0.0014759745 0.0006392544 0.051158212
-0.012073615 0.0028221612 0.0028951336 -0.0066480115 -0.0060069277 0.0015570878 -0.0019036753 -0.001939535
-0.0003627908 0.006986733 0.0012656962 0.029350309 -0.0022496362 -0.003049781 0.049805105 -0.0006079574
0.048248347 -0.00529445 0.0014313819 -0.0061978237 -0.033612538 -0.0048843543 0.03774959 -0.004566523
0.0008908199 -0.012965849 -0.018057564 0.001281143 0.0028259703 0.002341785 -0.010482466 0.0765699
0.0007912148 0.0543674 0.001627086 0.011829855 -0.00047184745 -0.002669788 -0.01715588 0.033334907
-0.0010902457 -0.0053309714 0.0036076328 -0.0027968418 0.0010973201 0.003512114 -0.00067788234 -0.0006513374
-0.0027171236 -0.00089650456 0.00046100197 -0.00028518177 0.0023675873 -0.009588556 -0.017377293 0.0067165755
0.031961307 0.0013830878 0.004060918 -0.0010550222 -0.004672783 0.0073984824 -0.0013601849 0.051761597
-0.024874121 -0.0011812885 0.00046261973 -0.0026297248 0.0012908425 -0.004602553 -0.0033769144 -0.0001538726

transformer.layers.0.1.fn.fn.net.3.weight f4 [32, 128]
00000000: 0835 a539 157a 413a b883 9c3c 9cb0 f33a
00000010: 9738 693c db64 913c e60f 373c 3be9 633a
00000020: 206d efbb 8e77 a93d 2d10 e2bb a485 6c3d
00000030: 3640 1ebb b670 dd3b abec 89ba 7e2d cfbb
00000040: 22e5 37bc d42f b33d d58d 4c3b cc52 043c
00000050: 4aa0 103c 0dfd 98bb 7b60 033e fe24 ad3b
00000060: 4b97 e13b 6e51 c93a be48 afbb b11d b9bc
00000070: fb4c 82bb 9092 8ebd 654c 453b a19a 833b
00000080: 4921 9b3b 6788 38bc 6667 87bb 3f3a 843b
00000090: b9fe 493b 4a7c 5b3c b8d5 3cbb 75e5 eb3b
000000a0: 67ef bbbc 55f2 033c 7904 d23b 2389 9b3d
000000b0: 3453 88bc ae5e eabc 4fd1 f03b b5cc 01bc
000000c0: ace6 c1bb 1669 4e3c 5b6b 58b9 95f5 04b9
000000d0: 7db8 bb3a 4c45 f4bb c9a5 203c f02b 5a3d
000000e0: e24d 933a 8f27 a13b 5e07 2dbb b32b bbbb
000000f0: f874 cd3a f422 2e3b a2f9 81bc 081c 083b
00000100: b8fd 3abb 9e64 b23b 83a4 9abb 78f9 0d3e
00000110: 3562 c8ba 8760 ecbb ee8a 9b3b 8fc1 1cba
00000120: 86cb 703c 41b3 83bb 6f9e 3d3a 7cd9 afbc
00000130: 62ed 853c 12f8 f6bd fff9 ad3d a066 983b
00000140: dc0f 49bb 66e0 8abc 80a7 db3d d583 daba
00000150: 4bcd adbc fc2c f03a 79cb d5bc 4268 43bc
00000160: cdea 88b9 8ddd ab3c ef08 ff3b 2f1b b9ba
00000170: a2ad 9dbb 847d d1b9 1d8a de3b 1ad2 443c
00000180: cb7e 7cbc 133b 493c 9997 11bb 633a b1bb
00000190: f5f8 ee3b 9916 82bb 3ade a539 739e 50bb
000001a0: 93fc 22bc dc99 36bc acff d538 1165 abbc
000001b0: 4d45 aa3b 3133 d33b 714a b7bb 5447 0a3c
000001c0: da9c 3abd e346 9f3b 99d7 35bd 2bfb ddb9
000001d0: 14d1 a2bb 27db ccbb 1470 533a 6d9c 8abc
000001e0: e698 ad3d 6c66 543b 81d5 9eba 079e 98bb
000001f0: 9fc4 113c 9cfd 7cbc ffec f23a 03ef fbba
00000200: 7655 133c 36d1 1239 703c bd3d 5387 bf3b
00000210: b94b 563b 34d3 9d3c 96ac 323e eb80 263c
00000220: 47e0 3f3c 1e63 683d f6d8 f53b 46a6 88bd
00000230: f6f9 f7bb ece7 143c bde4 a6ba 9f26 6fbc
00000240: 59b5 313e d940 8cbd 2370 503c b5d5 5e3c
00000250: 8192 04bc 4f41 243c c2d6 a4bc 88f2 b63c
00000260: acd5 e73b 7030 82bc 2b4b d6bb 094a 1cbc
00000270: e3aa b8bc a847 dc3c c090 e7bb 3a07 83bc
00000280: 9708 5dba 16f6 4bbc 820b cbb9 7e69 803b
00000290: a8da 5abc d1d3 493c 2583 1abc 8218 cbbb
000002a0: 2b5e 113d 29f1 313c 3960 0d3c a539 4bbd
000002b0: 3a0d 77bc 4f05 6fbd cc7e 11bc e31d cfbb
000002c0: 0af3 80bc eba4 9c3b 1d55 523b 139c 77ba
000002d0: f585 1eb9 985a a8bb d215 1d3b 09be 993d
000002e0: d512 afbd 7812 183c db85 78bb c231 8fbc
000002f0: e16f f8bb 49b6 16bc 526f babb 7950 f2bb
00000300: 0a40 91bb e9ea 5abc 6b62 72bb f9b2 10be
00000310: 342b aabc ece4 05bc 1664 abbd d879 7f3b
00000320: 47d8 f23d ffdb 92bc 3974 153c 014b 64bc
00000330: 7112 403e a54d 4a3d da51 86bd e7fe 283c
00000340: b10d 38bc dfaa ef3b e5eb 71bb f83b bf3b
00000350: c19b 83bc a32f da3b 8e7e 86bc e100 0e3e
00000360: 6cda ca3a b256 e43d 38b9 873b 4833 92bc
00000370: d76b a2bb cf91 b0bb 8d29 1abd e971 0ebe
00000380: b511 ccbb e788 ba3c 5eab bebc dae7 84bc
00000390: ed52 8aba d210 fd3a 02d8 d43b c42f 12bc
000003a0: 7754 31bc 0cd0 9abb ac94 87bb 45ab 2cbc
000003b0: 9b15 f0bb ec69 6a3c b2c0 5fbd b65e 113c
000003c0: f781 b13d cd0f 93bb 7f1a 4fbc ad4f 9c3b
000003d0: 8264 d3ba c64c 963c 7a26 22bc 9759 ffbd
000003e0: 240a c8bd 2c14 89ba 4158 433a 4031 3ebc
000003f0: 8ce5 ca3b e56c 54bc c8de 003c 0e53 b7bb
0.00031510764 0.00073805574 0.019105777 0.0018592062 0.0142346835 0.017748287 0.011173224 0.0008694117
-0.00730671 0.08274756 -0.006898901 0.057744637 -0.002414716 0.006757821 -0.0010522803 -0.0063225618
-0.011224063 0.08749357 0.0031212468 0.008076381 0.008827278 -0.004668838 0.12829773 0.005283951
0.0068844906 0.0015359351 -0.0053492477 -0.022597166 -0.003976462 -0.06961548 0.003010535 0.004016236
0.0047341925 -0.01126299 -0.004132199 0.004035264 0.0030821993 0.013396332 -0.002881391 0.0071989843
-0.022941304 0.008053382 0.0064092246 0.07594516 -0.016641237 -0.0286096 0.0073491703 -0.007922341
-0.005917391 0.012598297 -0.00020639358 -0.00012679987 0.001432195 -0.00745455 0.009805151 0.05326456
0.0011238421 0.004918046 -0.0026402096 -0.0057119965 0.0015675118 0.0026571127 -0.015866105 0.002076866
-0.0028532576 0.0054441234 -0.0047193184 0.13864696 -0.0015288057 -0.0072136554 0.0047467863 -0.000597977
0.014696961 -0.0040191715 0.0007233386 -0.02146601 0.016348545 -0.120590344 0.084949486 0.0046509057
-0.003067962 -0.016952705 0.107253075 -0.0016671369 -0.021216055 0.0018323953 -0.026098 -0.0119267125
-0.00026114882 0.020979667 0.0077830474 -0.0014122481 -0.0048119584 -0.00039957103 0.0067913667 0.012012983
-0.015411089 0.012282151 -0.0022215603 -0.0054085716 0.0072928616 -0.003969979 0.00031636824 -0.0031832724
-0.009947914 -0.011145081 0.00010204254 -0.020922216 0.0051962496 0.0064453115 -0.005593591 0.0084398575
-0.04555974 0.0048607453 -0.044395063 -0.0004233954 -0.0049687717 -0.006251711 0.0008065712 -0.016920293
0.08476429 0.003240968 -0.0012118072 -0.00465751 0.008896976 -0.015441325 0.0018533765 -0.0019221011
0.008992543 0.00014001582 0.09240043 0.0058449893 0.0032698943 0.019265749 0.17448649 0.010162572
0.011711187 0.05673515 0.0075026704 -0.06672339 -0.0075676395 0.009088498 -0.0012732964 -0.01459661
0.17354335 -0.06848306 0.012722048 0.013600756 -0.00809157 0.010025336 -0.020121936 0.022332445
0.007075032 -0.015892237 -0.0065397224 -0.009539136 -0.022542423 0.026889637 -0.007066816 -0.015994657
-0.0008431761 -0.012448808 -0.0003872775 0.0039188256 -0.013357796 0.012318567 -0.009430681 -0.00619799
0.035490196 0.01086072 0.008628898 -0.04961552 -0.015078837 -0.058354672 -0.008880328 -0.0063207014
-0.01574089 0.004780402 0.0032094189 -0.0009445559 -0.00015117957 -0.0051377527 0.0023969305 0.075069495
-0.08548514 0.009281747 -0.003792158 -0.017479781 -0.0075816964 -0.009198734 -0.00568954 -0.007394847
-0.004432683 -0.013361671 -0.0036984931 -0.14130773 -0.020772554 -0.008172255 -0.08368699 0.0038982537
0.11857658 -0.017927168 0.009121948 -0.013933898 0.18757035 0.049390454 -0.06558581 0.01031468
-0.011233733 0.0073140706 -0.0036914286 0.0058360063 -0.01606548 0.006658511 -0.016417768 0.13867523
0.0015476472 0.11149348 0.004141953 -0.017846718 -0.004956703 -0.0053884755 -0.037637282 -0.13910641
-0.006227697 0.022770358 -0.023275074 -0.016223837 -0.0010553278 0.0019307381 0.0064954767 -0.008922521
-0.010823361 -0.004724508 -0.004137596 -0.010538881 -0.0073267943 0.01430748 -0.054627128 0.0088726785
0.08667367 -0.0044879676 -0.0126405945 0.0047702403 -0.0016127976 0.018347155 -0.009896869 -0.1246826
-0.09767559 -0.0010458282 0.00074518105 -0.011608422 0.006191915 -0.012965416 0.007865615 -0.0055946177

transformer.layers.0.1.fn.fn.net.3.bias f4 [32]
00000000: 0988 3a3c 3c23 103c 0679 ba3a 8c1b febb
00000010: 5a3e cdbc 37d3 33bd d6c2 e7bb 1ecf aebb
00000020: e411 8239 d31a 85bb fd68 483c 5e28 e73b
00000030: d539 b9bb 2fc9 0fbc 7860 263b 775c afbb
00000040: 2666 753a 754b 54ba 1c59 243b d4f0 1ebc
00000050: 4914 243d 99d1 4c3b cd9a c23c b551 c0bb
00000060: c83f 1c3c dea2 63bb 7298 eb3a 9650 9e3a
00000070: 82f6 f3bb 0aa8 103b 61bb bc3b 1202 88bc
0.011384972 0.008797463 0.0014226742 -0.0077547487 -0.025054146 -0.043902602 -0.007072787 -0.005334749
0.00024808862 -0.0040620356 0.012232062 0.0070543727 -0.005652646 -0.008775993 0.002538709 -0.005351599
0.00093612296 -0.0008098402 0.0025077527 -0.009700973 0.040058408 0.003125286 0.023755455 -0.0058691152
0.009536691 -0.0034734528 0.0017974509 0.001207846 -0.0074451575 0.0022072815 0.005759642 -0.01660255

transformer.layers.1.0.fn.norm.weight f4 [32]
00000000: c9b5 e438 65ce 433c 8433 bf3b 51a4 5e3d
00000010: f8e5 bd3b 355c c43b 9e92 ff3a b5a6 523b
00000020: f177 913b 1f79 0bbb 66e1 eb3b 4151 8cbb
00000030: eb67 a03c c83d 573d 1162 1d3a 383b 023c
00000040: 7e70 18bb 766b 173d b5eb f1bb ed0c 03bb
00000050: eaa2 9a3a a366 92bb cdbb 123b 040a 4d3b
00000060: 4247 a23d dd34 ab3d 3aa0 843d 6bca b43d
00000070: f5f4 413c cd52 cb3d 962b e939 946c 673c
0.00010905747 0.011951064 0.0058349986 0.054355923 0.0057952367 0.0059924372 0.0019498651 0.0032142822
0.004439347 -0.002128191 0.0071985004 -0.004282147 0.019580802 0.052549154 0.0006003688 0.007948689
-0.002326041 0.036967717 -0.007382835 -0.0019996718 0.001179782 -0.0044678017 0.002238977 0.0031286487
0.079237476 0.08359692 0.06475873 0.08827671 0.011838187 0.09927902 0.00044473697 0.014125008

transformer.layers.1.0.fn.norm.bias f4 [32]
00000000: 6a18 433c 7a07 8d3a 1ccf e437 cb80 5dbc
00000010: 5a2c 47bb e201 90ba 0af6 ae3b 48e1 ddbb
00000020: 17df feb8 4566 0e3b 0f1a 51bc f7ce ac3a
00000030: 99dc b5ba 7a54 503c 2cf8 a6bb f268 413b
00000040: 2aef 23bb 6b1b 023c 9bf0 e23b 6928 f7ba
00000050: 606c b63b a8eb e43b d585 513c 455b 9d3b
00000060: 781e cebc 6687 c43c ba5c 00bd 8c41 7cbc
00000070: be27 423a 5958 b5bc d1ba a03b 970f 3abb
0.011907676 0.0010759674 2.727616e-05 -0.013519476 -0.0030391426 -0.0010986889 0.0053393887 -0.0067712404
-0.000121532175 0.0021728438 -0.0127625605 0.0013184239 -0.0013874947 0.012715453 -0.0050955024 0.0029512015
-0.002501438 0.007941107 0.006925655 -0.0018856648 0.0055671185 0.0069861 0.012788256 0.00480214
-0.025161013 0.023990344 -0.03133843 -0.015396487 0.0007406435 -0.022136854 0.0049050828 -0.002839064
