lightGBM_template/network.pt (torch, 82511 bytes, 114 tensors)

embedder.embeddings.0.weight f4 [8, 3]
00000000: 21c2 acc0 dfc0 543f 9a95 94c0 c166 6cbf
00000010: 7a57 96c0 27c2 48c0 8050 e840 fa7b 2041
00000020: 2286 0241 212c 41bf 1fbf c140 f846 9abf
00000030: 1be9 56c0 a77f 2341 1ae2 09c0 adb6 28c1
00000040: 14dd 1940 38f9 dcc0 875f 6ec1 8e00 36c0
00000050: b2f7 b4c0 e1ab a4c0 64a1 61bf 5abe ddc0
-5.3986974 0.831068 -4.643262 -0.9234429 -4.6981783 -3.13685 7.2598267 10.030268
8.157747 -0.7545796 6.05458 -1.2052908 -3.3579776 10.218665 -2.1544251 -10.544599
2.4041185 -6.905422 -14.898322 -2.8437839 -5.6552362 -5.1459813 -0.8813689 -6.9294863

embedder.embeddings.1.weight f4 [12, 3]
00000000: 7d16 38c1 10bb c8c0 538f b440 428d adbd
00000010: b33e 0740 03d0 13c0 64f1 873d 9c07 5d40
00000020: 2a45 37c0 736d c540 682c bac0 247b dc3f
00000030: 150b 6a40 f122 0241 2adc 14c1 dbfc 5ac0
00000040: febc 4ec1 b5f1 0f41 4258 a7c1 0840 2a40
00000050: e900 9f40 1a48 e53f 0a09 463f 6bc8 1abe
00000060: d5f1 9dc0 2ca6 a540 bf21 cbc0 7071 a0c0
00000070: beff 6abf 2d14 c53f 7c3c a9bf cd1e f53f
00000080: 58aa 303e 6afc 0d40 2f4d e5bf 2875 e1bd
-11.50549 -6.272835 5.6424956 -0.084742084 2.1132019 -2.309571 0.066378385 3.4535894
-2.8635964 6.1696105 -5.8179207 1.722508 3.6569264 8.133531 -9.303751 -3.421683
-12.921141 8.9965105 -20.918095 2.6601582 4.968861 1.7912629 0.7735754 -0.15115516
-4.9357705 5.1765347 -6.3478694 -5.0138474 -0.9179648 1.5396782 -1.3221583 1.9150025
0.17252481 2.2185311 -1.791418 -0.11008674

tabnet.initial_bn.weight f4 [14]
00000000: 0000 803f 0000 803f 0000 803f 0000 803f
00000010: 0000 803f 0000 803f 0000 803f 0000 803f
00000020: 0000 803f 0000 803f 0000 803f 0000 803f
00000030: 0000 803f 0000 803f
1.0 1.0 1.0 1.0 1.0 1.0 1.0 1.0
1.0 1.0 1.0 1.0 1.0 1.0

tabnet.initial_bn.bias f4 [14]
00000000: 0000 0000 0000 0000 0000 0000 0000 0000
00000010: 0000 0000 0000 0000 0000 0000 0000 0000
00000020: 0000 0000 0000 0000 0000 0000 0000 0000
00000030: 0000 0000 0000 0000
0.0 0.0 0.0 0.0 0.0 0.0 0.0 0.0
0.0 0.0 0.0 0.0 0.0 0.0

tabnet.initial_bn.running_mean f4 [14]
00000000: 0000 0000 0000 0000 0000 0000 0000 0000
00000010: 0000 0000 0000 0000 0000 0000 0000 0000
00000020: 0000 0000 0000 0000 0000 0000 0000 0000
00000030: 0000 0000 0000 0000
0.0 0.0 0.0 0.0 0.0 0.0 0.0 0.0
0.0 0.0 0.0 0.0 0.0 0.0

tabnet.initial_bn.running_var f4 [14]
00000000: 0000 803f 0000 803f 0000 803f 0000 803f
00000010: 0000 803f 0000 803f 0000 803f 0000 803f
00000020: 0000 803f 0000 803f 0000 803f 0000 803f
00000030: 0000 803f 0000 803f
1.0 1.0 1.0 1.0 1.0 1.0 1.0 1.0
1.0 1.0 1.0 1.0 1.0 1.0

tabnet.encoder.initial_bn.weight f4 [14]
00000000: 97fc df40 f8d4 b8c0 ef3b 2941 e776 d040
00000010: 560e 50c1 e523 de3f 450d a03f 9088 4840
00000020: a042 a140 b6f9 5e3f e74c 8840 9eb2 7b40
00000030: 889e b6c0 4457 a8c0
6.9995837 -5.775997 10.577132 6.5145144 -13.0035 1.7354704 1.250405 3.133335
5.039383 0.8709978 4.2593875 3.932777 -5.706852 -5.2606525

tabnet.encoder.initial_bn.bias f4 [14]
00000000: be4f ec3e cb43 c1bf 5c14 c1bf 0cb8 28be
00000010: 177d 78bf 44e5 b43f e0e0 543f 54e7 98bf
00000020: 7253 773f 4222 09c0 b80f dd3e bcd3 29c0
00000030: 064e dd40 e847 77bf
0.46154588 -1.5098814 -1.5084338 -0.16476458 -0.9706587 1.4132466 0.8315563 -1.1945596
0.966117 -2.142716 0.43176055 -2.6535482 6.9157743 -0.96594095

tabnet.encoder.initial_bn.running_mean f4 [14]
00000000: b9ba c03c bf6e 343e 57a4 003e 0384 843e
00000010: 514f 5b3f 99f3 273f 0a12 98c0 02e4 ca3e
00000020: 0789 8bc0 0954 0ec0 f160 4abe 1c13 94be
00000030: 0f3a 8142 8c4e 5842
0.023526536 0.17620371 0.1256269 0.25881967 0.856679 0.65606076 -4.752202 0.3962708
-4.360477 -2.223879 -0.19763543 -0.2892083 64.613396 54.076706

tabnet.encoder.initial_bn.running_var f4 [14]
00000000: fa17 4a3b e512 9c3d 7a7f 023d 35c8 b83d
00000010: 83d3 043c fac7 6d3d a278 2940 1115 6340
00000020: 4f60 a63f 5015 f941 d3ec 9b41 3284 6641
00000030: bbea bf44 b560 ba44
0.0030837045 0.07620791 0.031859852 0.090225615 0.008107069 0.05805204 2.6479878 3.5481608
1.2998141 31.135406 19.490637 14.407274 1535.3353 1491.0221

tabnet.encoder.initial_splitter.shared.shared_layers.0.weight f4 [32, 14]
00000000: 1055 5ac0 5da9 b4c0 0839 8ebf 4fb9 9b40
00000010: 71e1 a9c0 6412 fac0 d06b f3c0 d977 ecc0
00000020: 68c8 59c0 07b0 0ac0 d0ca d63f 376b 2240
00000030: 630c 6a40 51f7 6f40 a9a7 4bc0 5651 a840
00000040: b8d8 a5bf 1886 cdc0 f739 fbc0 acbc 9440
00000050: 8141 30c0 36a9 913f 0739 7ec0 93fa 93bf
00000060: 09a3 6e40 6096 b040 8c0d 933f 37c0 8640
00000070: 5452 4ac1 cc76 4cbf a006 1cc1 90f6 8d3d
00000080: 7783 dbc0 31f8 e5bd fe2b bec0 8582 ff40
00000090: 9fcf 9cc0 98a5 fd3f a1ca 5c40 9c6c cbc0
000000a0: 1572 1fc0 5a53 4bbf fffb 1640 c9af 4bc1
000000b0: 8262 9b3f a881 6841 77b3 1340 31df 32c1
000000c0: e913 1840 3800 6dbf 0232 0140 a6c8 d43f
000000d0: 22d1 1040 30b5 88c0 c4ec 2cc1 f038 fe40
000000e0: 79e5 e2bd 03ff f140 fe71 0e40 fe61 14c1
000000f0: 3531 7240 adf5 f440 a20b 873d 7905 a5c0
00000100: 0c65 a9c0 930d 18bf 72bc ba3e 9309 6a40
00000110: 3d51 b240 2a36 013f c874 a540 27e6 3e41
00000120: 9618 e9be 9c7e 89c0 56ed ac40 9b2d 4c41
00000130: d9cf d5c0 f40f 7bc0 30d6 78c0 aef6 a0be
00000140: 56a3 8dc0 05cf 66c0 5d7d 8fc0 85db 1a41
00000150: 8ed1 bdbf 4bcc 4e3c fe52 9bc1 7dca ecbf
00000160: 8605 8f40 be9b 4240 30f8 bbbf 1af9 89c0
00000170: beea dbbf 2520 7040 4e0c 9040 1dc1 a3c0
00000180: cd6d 2c41 1b02 1141 a4f4 b8c0 ce74 2d3f
00000190: 24c5 5bc0 f16b 7340 05b0 00c1 b69f 2dc1
000001a0: 7f22 603f 078d a6c0 dab4 8e3f ec67 483f
000001b0: 95ce 0f41 9905 713e fae3 a640 601a bcbd
000001c0: 3cdf 49c0 4ba8 9bbf 7eb2 31c0 6679 03bf
000001d0: ac2e e840 e910 a3c0 79b7 f240 6ab8 c040
000001e0: 8770 1641 bfdf 7640 fc91 ac3f d02f 6dc0
000001f0: 342d 5d40 0f47 aa40 5416 96bf 0ed5 d53e
00000200: e976 02c1 2b00 25c1 69d3 e240 8642 0240
00000210: 8754 4940 f5da 9e3d d655 1f40 8c51 ba40
00000220: d4e2 e33f b8e8 0ac0 fc16 f0bc 8b88 9540
00000230: 49df 8d3f e5cb e93f 8d57 e6c0 0a2d 1440
00000240: 0211 8640 9768 a1c0 8d35 0941 0a36 0fc1
00000250: 6a22 0641 c74e d540 1bc1 f33e ace9 883f
00000260: b237 dc40 a129 1a41 2bf0 c6c0 8de4 2ac1
00000270: 78e1 8440 f4c6 0a3f e45e 33bf a90b 513f
00000280: 757b 7740 24d6 0541 6da1 f240 35c6 0741
00000290: be61 3c40 7038 12c1 c867 bc40 f75a 5f40
000002a0: 24a1 b3c0 9371 abc0 9e27 48c0 a134 0f40
000002b0: d10c e33f ac0d 97c1 b47c 02c0 5b15 9e40
000002c0: e572 e03e 9ceb 09c1 e060 86be aec5 c8c0
000002d0: ddb3 d03f 7e47 d3c0 23f8 e0c0 a8fa 5c40
000002e0: 6a65 abc0 35cc 71c0 a319 b8c0 e41e b53f
000002f0: 4db2 cd40 4c56 bac0 c863 cdc0 6aae 79c0
00000300: 08bf ac40 3419 1640 8a47 58c0 53d3 323f
00000310: a1e0 10c1 2885 6d41 4547 9f3e 3883 88c0
00000320: 6f3d 36c0 cc42 87c0 560b eb40 2b68 ecc0
00000330: 5057 0b40 a742 1340 b4b0 27be 200a a340
00000340: 4d66 e440 d116 15c0 cb7f 8a41 6e78 11c0
00000350: c3c1 c040 9b4e df3f fb67 2141 1749 7a3f
00000360: 1c30 d63f 615d 02c1 1d08 b63e d6d3 16c0
00000370: 18ea 85c0 2b0c 3740 586b f240 cf72 9e3e
00000380: 5fd0 4740 3179 223f 458e dabf 01d6 1040
00000390: 0dfd 4740 735e 4ec0 d9ed 4441 265e e3bf
000003a0: e052 6441 c219 8140 e394 59bf 5385 80c0
000003b0: 7177 af40 baf3 4640 1eca 933f f99b 84c0
000003c0: aae9 0940 cb43 68c0 aba6 62bf df7c aa40
000003d0: 628d ba40 acdb 6ebf 7cd5 0141 60ad 6740
000003e0: 4347 f240 503a cc3f 45b4 4541 662a 7c40
000003f0: 85c8 2640 cd5b 5d40 86c3 e3be 62bd a03e
-3.4114418 -5.645674 -1.1111155 4.8663707 -5.3087697 -7.814745 -7.6069107 -7.38963
-3.4028568 -2.1669939 1.6780643 2.5377939 3.657006 3.74947 -3.1821082 5.2599287
-1.2956762 -6.422619 -7.850826 4.648031 -2.753998 1.1379764 -3.9722307 -1.1560844
3.7287009 5.5183563 1.1488509 4.2109637 -12.6451 -0.7986877 -9.751617 0.06931794
-6.859798 -0.112289794 -5.94287 7.9846826 -4.9003444 1.981616 3.4498675 -6.357008
-2.491338 -0.7942406 2.3591306 -12.730416 1.2139437 14.531654 2.3078287 -11.17949
2.3762152 -0.9257846 2.0186772 1.6623733 2.2627645 -4.2721176 -10.807804 7.9444504
-0.11078925 7.5623794 2.2257075 -9.273924 3.7842534 7.6549897 0.06594016 -5.156918
-5.293585 -0.5939571 0.36471897 3.6568344 5.572417 0.5047327 5.1705055 11.93119
-0.4552657 -4.2967052 5.4039717 12.761134 -6.681622 -3.9228487 -3.888073 -0.31438202
-4.4261885 -3.6063855 -4.484053 9.678594 -1.4829576 0.012621949 -19.415524 -1.8499295
4.4694242 3.0407557 -1.4685116 -4.311658 -1.7181013 3.751962 4.501502 -5.1173234
10.776807 9.063014 -5.7798634 0.67756355 -3.4339075 3.8034632 -8.0429735 -10.851492
0.87552637 -5.2047153 1.1148942 0.7828357 8.987935 0.23537292 5.215329 -0.09184718
-3.1542501 -1.2160734 -2.7765193 -0.51357114 7.2556973 -5.095814 7.5848966 6.0225115
9.4024725 3.8574064 1.3482051 -3.7060432 3.455884 5.321174 -1.1725564 0.4176411
-8.154031 -10.312541 7.088307 2.0353103 3.1457841 0.077566065 2.489614 5.8224545
1.7803597 -2.170454 -0.029307835 4.672918 1.1083766 1.8265349 -7.1981874 2.315249
4.189576 -5.0440173 8.575574 -8.950693 8.383402 6.6658664 0.47608265 1.0696311
6.8817987 9.635163 -6.2168174 -10.680799 4.152523 0.5420983 -0.70066667 0.81658417
3.8669102 8.36478 7.5822053 8.48589 2.9434657 -9.138779 5.8876686 3.489927
-5.6134205 -5.357614 -3.127418 2.2375872 1.7738286 -18.881676 -2.0388613 4.940107
0.43837658 -8.620022 -0.26245785 -6.274131 1.630489 -6.602477 -7.03029 3.4527988
-5.3561296 -3.7780888 -5.7531295 1.4150052 6.428015 -5.8230343 -6.4184303 -3.9012704
5.3983192 2.3452883 -3.3793664 0.69853705 -9.054841 14.845009 0.31109062 -4.266018
-2.8474996 -4.226904 7.345134 -7.387716 2.1772041 2.3009431 -0.16376 5.094986
7.137488 -2.3295176 17.312399 -2.2729754 6.0236526 1.7445863 10.087886 0.97767776
1.6733432 -8.147798 0.35553065 -2.3566794 -4.184826 2.8601177 7.5756035 0.30946967
3.122093 0.63466173 -1.7074667 2.2630618 3.12482 -3.2245147 12.308068 -1.7763107
14.270233 4.0343943 -0.8499281 -4.016275 5.4833302 3.108626 1.1546056 -4.1440396
2.1548867 -3.6291378 -0.88535565 5.327743 5.8297586 -0.9330394 8.11462 3.619957
7.571199 1.5955296 12.356511 3.9400878 2.6059887 3.458728 -0.4448511 0.31394488

tabnet.encoder.initial_splitter.shared.shared_layers.1.weight f4 [32, 16]
00000000: 9b1c 4140 638f a040 5ebe 6bc1 40ab cdc0
00000010: bb88 e53f 706e 9dc0 6ef4 a33f 5c15 d6c0
00000020: ba0e 8bbf d641 50bf 9ba7 8dbf 11e1 d4c0
00000030: 9668 65c0 342b a03f d42a dd3e 4647 2f41
00000040: 5ac0 f6be 32d5 963f d2c1 26c1 f22e fbc0
00000050: a95b fc40 0a99 90c0 26df b93f bd56 87c0
00000060: 114b 8240 eecb 33be 816e da3e 5115 0cc1
00000070: 8b01 0e41 bf51 8740 da13 58c0 1f13 8f40
00000080: 2f50 ef3f 24e4 2d40 e4b1 20c1 fbab 89c0
00000090: 43e0 21c1 a9b1 6d3c e83f 24bf 9625 d5c0
000000a0: 3efa 5dbf a543 7541 3aed 13c1 a487 ac3f
000000b0: 0cdd 8bc0 b27b c3c0 30e4 06c1 8731 d33f
000000c0: f78f 7cbf c2cc 1140 8438 bfbf fe9a 0041
000000d0: 41de 0e3f 4d57 39c1 dcae 33bf d68b dfbf
000000e0: 6ef4 213f 1ff5 d63d ef63 a9c0 4bf3 2d40
000000f0: b009 6b41 d55e 00c0 e46e 44c0 6d9a 5a41
00000100: d4de 15c0 716f 7cc0 01bc 6cbf 5e59 06c0
00000110: e8c4 3bc0 a77c b440 3f3b 62c0 5f38 3c41
00000120: b894 f540 8ca2 7fbf dea9 0341 d868 f63f
00000130: d5bb 6540 d181 64c0 7fbd 6d40 20b9 cbc0
00000140: 8ae8 8fbe aa26 88c0 5e3e 0141 3fd1 fa40
00000150: ef36 02c1 cbfe 5b3e 66e8 5fc0 d1e8 713f
00000160: 6861 2e40 5227 0ac1 8a6e 8540 bd3a 1741
00000170: 0b4e 3fc0 389e 8ac0 3422 6a40 58ba bec0
00000180: 4726 673f 8bd8 2cc0 9a1e 0dc0 9353 40c1
00000190: 1b6e 7abf 2232 e240 7276 a0c0 9fd0 b2bf
000001a0: f5f9 cbbf 02bc 68c0 2cef fbc0 58b6 1740
000001b0: f13d 2cc1 bc21 62be c480 463f 00d3 2a40
000001c0: 61c5 4dc0 95e8 91bf 3eee ef3f afd9 bb3f
000001d0: 7a7a babf 3f3f a3c0 cf33 55c0 47ee 12c1
000001e0: c83e aebf 5429 5240 8962 21c1 38aa 5e40
000001f0: 886f 2541 8bd8 72bf 949b f63e 0fb8 9140
00000200: f1dd 833f 46d8 8840 3bbb 7c40 7e1a 0e41
00000210: fbea a3c0 917e dabe de3f ee3f 4e0c 2540
00000220: b305 9c41 66ab 69bf 647f 35c0 37e2 0040
00000230: a94b 12bf 157e 9ac0 a912 63c0 167c c13f
00000240: bad4 fe40 4f7d 6fbf 52ab 823f f8e1 e6c0
00000250: ee22 e840 8a8d 2941 6c5a 0a41 4476 0ac0
00000260: f50f 4ec0 0076 c8c0 3eda 59c1 be00 5440
00000270: 7f8c efbf 87cd b340 4580 24bf acb5 953f
00000280: 9560 abbe a521 ffc0 9cf9 7fc0 2d23 bcc0
00000290: 29a4 55c0 399b 133e f1cc 55bf 55d7 ab40
000002a0: d811 a8c0 c124 3bc1 7d94 823f 2e80 8dbf
000002b0: 5633 28c0 b642 42c0 4f66 0241 49d9 6abf
000002c0: 367e e1be 18dc 76c0 cad8 01c0 c957 73c0
000002d0: 17d0 c13f 1ffc c53f a2ab 12be 73ec efc0
000002e0: 3206 6cc0 73bf 2dc1 9b76 7fc1 0fba dcbf
000002f0: dca6 c840 849b 26bf ef60 c740 92bd 573e
00000300: bfab 03c1 d4a7 00c0 376a 03c1 27bc 553f
00000310: b624 2ac1 f79b 3241 cafd 98bf 4c10 0b40
00000320: ebcc da3f 9572 60c0 84aa febe cc24 3f40
00000330: 95f3 a940 b087 3bc1 cfba ee40 7b26 cfc0
00000340: d289 2841 cf41 0141 dc52 1ac0 de70 d0c0
00000350: 17c8 90bf ecf5 0cc1 0644 5540 78b4 60c0
00000360: f1eb dac0 1739 8140 e65a 0a3f 2e81 20c1
00000370: 014c cbc0 bdb3 2341 3d17 dac0 827b 9a40
00000380: d0af cfc0 f642 50bf a8a4 0741 95f2 b940
00000390: 5d0c 1140 5922 72c0 6574 5dc0 1a14 1141
000003a0: c505 16c0 cfc7 0cc1 4caa 2ec0 fdfc 75c0
000003b0: 27c6 963e 49d6 90c0 2128 1b40 c16b 41c1
000003c0: fc0a 42be d324 9f40 fcfb 1841 eaf3 d83e
000003d0: 016b 41c0 4ab8 9940 38a9 8740 6b04 2340
000003e0: 201f 0cbf f03b 4dc0 352b cd40 0ae1 82bf
000003f0: 0592 f7c0 7f9a b340 5f34 1440 5973 13c1
3.017371 5.0175033 -14.733976 -6.4271545 1.7932352 -4.919731 1.2808969 -6.6901073
-1.0863869 -0.8135046 -1.1066774 -6.652474 -3.5845084 1.2513185 0.43196738 10.954901
-0.48193628 1.1783812 -10.422319 -7.8494806 7.886189 -4.5186815 1.4521224 -4.229338
4.0716634 -0.17558262 0.42662433 -8.755204 8.875377 4.228729 -3.3762116 4.471084
1.8696345 2.7170496 -10.04343 -4.3022437 -10.117251 0.0145076895 -0.64160013 -6.660838
-0.86709964 15.329015 -9.245417 1.3478894 -4.3707333 -6.1088495 -8.43071 1.649949
-0.9865717 2.2781224 -1.4939122 8.03784 0.5580788 -11.583814 -0.7018869 -1.746455
0.63263595 0.10495972 -5.293449 2.7179744 14.689865 -2.005788 -3.0692682 13.662702
-2.3417253 -3.9443018 -0.9247437 -2.0992045 -2.9338932 5.6402164 -3.534866 11.763762
7.674404 -0.998574 8.2289715 1.9250746 3.5895894 -3.5704234 3.714691 -6.3663483
-0.281071 -4.2547197 8.077726 7.8380427 -8.1384115 0.21483915 -3.4985595 0.94495875
2.7246952 -8.6346 4.1697435 9.45184 -2.9891384 -4.331814 3.6583376 -5.960247
0.9029278 -2.7007167 -2.2049928 -12.020404 -0.9782426 7.0686197 -5.0144587 -1.3969916
-1.5935656 -3.636475 -7.872946 2.3705044 -10.765122 -0.22083181 0.7754023 2.6691284
-3.215172 -1.1399103 1.8744581 1.4675807 -1.4568627 -5.1014705 -3.3312871 -9.183173
-1.3612909 3.2837725 -10.086556 3.4791393 10.339729 -0.9486167 0.48165572 4.553718
1.0302106 4.2764006 3.9489276 8.881468 -5.122434 -0.42674688 1.8613241 2.578876
19.502783 -0.9127716 -2.8359003 2.013807 -0.571467 -4.827891 -3.548014 1.5115993
7.9634676 -0.9355058 1.0208533 -7.215084 7.254264 10.597055 8.647076 -2.1634684
-3.219724 -6.2644043 -13.615782 3.3125453 -1.8714751 5.618839 -0.64258224 1.1696067
-0.33472124 -7.972857 -3.99961 -5.879294 -3.3381445 0.14414681 -0.8351584 5.3700356
-5.252178 -11.696473 1.0201565 -1.1054742 -2.6281333 -3.0353217 8.149978 -0.917378
-0.44041604 -3.8571835 -2.0288568 -3.802233 1.5141629 1.5467566 -0.14323285 -7.4976134
-3.6878781 -10.859241 -15.966456 -1.724428 6.2703686 -0.6508105 6.2305827 0.21068409
-8.22943 -2.0102434 -8.213431 0.8349022 -10.633963 11.163077 -1.195245 2.1728697
1.7093786 -3.5069935 -0.49739468 2.986621 5.310984 -11.720627 7.460304 -6.4734473
10.533648 8.078567 -2.4113073 -6.5137777 -1.1311063 -8.8100395 3.3322768 -3.511015
-6.8413014 4.038219 0.5404495 -10.031538 -6.353028 10.231381 -6.8153367 4.8275766
-6.4902115 -0.81352174 8.477699 5.810862 2.2663796 -3.7833464 -3.4602292 9.067408
-2.3441021 -8.798781 -2.729144 -3.8435662 0.29448053 -4.526158 2.4243243 -12.088807
-0.18949503 4.973245 9.56152 0.42373592 -3.022156 4.803746 4.2394066 2.5471447
-0.54734993 -3.2067833 6.4115243 -1.0224926 -7.7365746 5.6126094 2.3156965 -9.215661

tabnet.encoder.initial_splitter.shared.glu_layers.0.fc.weight f4 [32, 14]
00000000: 1055 5ac0 5da9 b4c0 0839 8ebf 4fb9 9b40
00000010: 71e1 a9c0 6412 fac0 d06b f3c0 d977 ecc0
00000020: 68c8 59c0 07b0 0ac0 d0ca d63f 376b 2240
00000030: 630c 6a40 51f7 6f40 a9a7 4bc0 5651 a840
00000040: b8d8 a5bf 1886 cdc0 f739 fbc0 acbc 9440
00000050: 8141 30c0 36a9 913f 0739 7ec0 93fa 93bf
00000060: 09a3 6e40 6096 b040 8c0d 933f 37c0 8640
00000070: 5452 4ac1 cc76 4cbf a006 1cc1 90f6 8d3d
00000080: 7783 dbc0 31f8 e5bd fe2b bec0 8582 ff40
00000090: 9fcf 9cc0 98a5 fd3f a1ca 5c40 9c6c cbc0
000000a0: 1572 1fc0 5a53 4bbf fffb 1640 c9af 4bc1
000000b0: 8262 9b3f a881 6841 77b3 1340 31df 32c1
000000c0: e913 1840 3800 6dbf 0232 0140 a6c8 d43f
000000d0: 22d1 1040 30b5 88c0 c4ec 2cc1 f038 fe40
000000e0: 79e5 e2bd 03ff f140 fe71 0e40 fe61 14c1
000000f0: 3531 7240 adf5 f440 a20b 873d 7905 a5c0
00000100: 0c65 a9c0 930d 18bf 72bc ba3e 9309 6a40
00000110: 3d51 b240 2a36 013f c874 a540 27e6 3e41
00000120: 9618 e9be 9c7e 89c0 56ed ac40 9b2d 4c41
00000130: d9cf d5c0 f40f 7bc0 30d6 78c0 aef6 a0be
00000140: 56a3 8dc0 05cf 66c0 5d7d 8fc0 85db 1a41
00000150: 8ed1 bdbf 4bcc 4e3c fe52 9bc1 7dca ecbf
00000160: 8605 8f40 be9b 4240 30f8 bbbf 1af9 89c0
00000170: beea dbbf 2520 7040 4e0c 9040 1dc1 a3c0
00000180: cd6d 2c41 1b02 1141 a4f4 b8c0 ce74 2d3f
00000190: 24c5 5bc0 f16b 7340 05b0 00c1 b69f 2dc1
000001a0: 7f22 603f 078d a6c0 dab4 8e3f ec67 483f
000001b0: 95ce 0f41 9905 713e fae3 a640 601a bcbd
000001c0: 3cdf 49c0 4ba8 9bbf 7eb2 31c0 6679 03bf
000001d0: ac2e e840 e910 a3c0 79b7 f240 6ab8 c040
000001e0: 8770 1641 bfdf 7640 fc91 ac3f d02f 6dc0
000001f0: 342d 5d40 0f47 aa40 5416 96bf 0ed5 d53e
00000200: e976 02c1 2b00 25c1 69d3 e240 8642 0240
00000210: 8754 4940 f5da 9e3d d655 1f40 8c51 ba40
00000220: d4e2 e33f b8e8 0ac0 fc16 f0bc 8b88 9540
00000230: 49df 8d3f e5cb e93f 8d57 e6c0 0a2d 1440
00000240: 0211 8640 9768 a1c0 8d35 0941 0a36 0fc1
00000250: 6a22 0641 c74e d540 1bc1 f33e ace9 883f
00000260: b237 dc40 a129 1a41 2bf0 c6c0 8de4 2ac1
00000270: 78e1 8440 f4c6 0a3f e45e 33bf a90b 513f
00000280: 757b 7740 24d6 0541 6da1 f240 35c6 0741
00000290: be61 3c40 7038 12c1 c867 bc40 f75a 5f40
000002a0: 24a1 b3c0 9371 abc0 9e27 48c0 a134 0f40
000002b0: d10c e33f ac0d 97c1 b47c 02c0 5b15 9e40
000002c0: e572 e03e 9ceb 09c1 e060 86be aec5 c8c0
000002d0: ddb3 d03f 7e47 d3c0 23f8 e0c0 a8fa 5c40
000002e0: 6a65 abc0 35cc 71c0 a319 b8c0 e41e b53f
000002f0: 4db2 cd40 4c56 bac0 c863 cdc0 6aae 79c0
00000300: 08bf ac40 3419 1640 8a47 58c0 53d3 323f
00000310: a1e0 10c1 2885 6d41 4547 9f3e 3883 88c0
00000320: 6f3d 36c0 cc42 87c0 560b eb40 2b68 ecc0
00000330: 5057 0b40 a742 1340 b4b0 27be 200a a340
00000340: 4d66 e440 d116 15c0 cb7f 8a41 6e78 11c0
00000350: c3c1 c040 9b4e df3f fb67 2141 1749 7a3f
00000360: 1c30 d63f 615d 02c1 1d08 b63e d6d3 16c0
00000370: 18ea 85c0 2b0c 3740 586b f240 cf72 9e3e
00000380: 5fd0 4740 3179 223f 458e dabf 01d6 1040
00000390: 0dfd 4740 735e 4ec0 d9ed 4441 265e e3bf
000003a0: e052 6441 c219 8140 e394 59bf 5385 80c0
000003b0: 7177 af40 baf3 4640 1eca 933f f99b 84c0
000003c0: aae9 0940 cb43 68c0 aba6 62bf df7c aa40
000003d0: 628d ba40 acdb 6ebf 7cd5 0141 60ad 6740
000003e0: 4347 f240 503a cc3f 45b4 4541 662a 7c40
000003f0: 85c8 2640 cd5b 5d40 86c3 e3be 62bd a03e
-3.4114418 -5.645674 -1.1111155 4.8663707 -5.3087697 -7.814745 -7.6069107 -7.38963
-3.4028568 -2.1669939 1.6780643 2.5377939 3.657006 3.74947 -3.1821082 5.2599287
-1.2956762 -6.422619 -7.850826 4.648031 -2.753998 1.1379764 -3.9722307 -1.1560844
3.7287009 5.5183563 1.1488509 4.2109637 -12.6451 -0.7986877 -9.751617 0.06931794
-6.859798 -0.112289794 -5.94287 7.9846826 -4.9003444 1.981616 3.4498675 -6.357008
-2.491338 -0.7942406 2.3591306 -12.730416 1.2139437 14.531654 2.3078287 -11.17949
2.3762152 -0.9257846 2.0186772 1.6623733 2.2627645 -4.2721176 -10.807804 7.9444504
-0.11078925 7.5623794 2.2257075 -9.273924 3.7842534 7.6549897 0.06594016 -5.156918
-5.293585 -0.5939571 0.36471897 3.6568344 5.572417 0.5047327 5.1705055 11.93119
-0.4552657 -4.2967052 5.4039717 12.761134 -6.681622 -3.9228487 -3.888073 -0.31438202
-4.4261885 -3.6063855 -4.484053 9.678594 -1.4829576 0.012621949 -19.415524 -1.8499295
4.4694242 3.0407557 -1.4685116 -4.311658 -1.7181013 3.751962 4.501502 -5.1173234
10.776807 9.063014 -5.7798634 0.67756355 -3.4339075 3.8034632 -8.0429735 -10.851492
0.87552637 -5.2047153 1.1148942 0.7828357 8.987935 0.23537292 5.215329 -0.09184718
-3.1542501 -1.2160734 -2.7765193 -0.51357114 7.2556973 -5.095814 7.5848966 6.0225115
9.4024725 3.8574064 1.3482051 -3.7060432 3.455884 5.321174 -1.1725564 0.4176411
-8.154031 -10.312541 7.088307 2.0353103 3.1457841 0.077566065 2.489614 5.8224545
1.7803597 -2.170454 -0.029307835 4.672918 1.1083766 1.8265349 -7.1981874 2.315249
4.189576 -5.0440173 8.575574 -8.950693 8.383402 6.6658664 0.47608265 1.0696311
6.8817987 9.635163 -6.2168174 -10.680799 4.152523 0.5420983 -0.70066667 0.81658417
3.8669102 8.36478 7.5822053 8.48589 2.9434657 -9.138779 5.8876686 3.489927
-5.6134205 -5.357614 -3.127418 2.2375872 1.7738286 -18.881676 -2.0388613 4.940107
0.43837658 -8.620022 -0.26245785 -6.274131 1.630489 -6.602477 -7.03029 3.4527988
-5.3561296 -3.7780888 -5.7531295 1.4150052 6.428015 -5.8230343 -6.4184303 -3.9012704
5.3983192 2.3452883 -3.3793664 0.69853705 -9.054841 14.845009 0.31109062 -4.266018
-2.8474996 -4.226904 7.345134 -7.387716 2.1772041 2.3009431 -0.16376 5.094986
7.137488 -2.3295176 17.312399 -2.2729754 6.0236526 1.7445863 10.087886 0.97767776
1.6733432 -8.147798 0.35553065 -2.3566794 -4.184826 2.8601177 7.5756035 0.30946967
3.122093 0.63466173 -1.7074667 2.2630618 3.12482 -3.2245147 12.308068 -1.7763107
14.270233 4.0343943 -0.8499281 -4.016275 5.4833302 3.108626 1.1546056 -4.1440396
2.1548867 -3.6291378 -0.88535565 5.327743 5.8297586 -0.9330394 8.11462 3.619957
7.571199 1.5955296 12.356511 3.9400878 2.6059887 3.458728 -0.4448511 0.31394488

tabnet.encoder.initial_splitter.shared.glu_layers.0.bn.bn.weight f4 [32]
00000000: 2798 5ac0 e31b 0a41 fbc4 2f41 547d 72be
00000010: 262c 7f40 9109 813f a7b5 9ec0 4f54 8740
00000020: 3cef 1541 1468 0d41 58e2 8a41 d755 8240
00000030: 10b9 8f3f 7ff4 58bf 42a1 f9bf 6b07 3041
00000040: ff57 4ebf f34c 81c0 345c 5140 32a8 88bf
00000050: 73e6 82c0 80ef b140 6ad2 2341 430b 0f41
00000060: 37e0 d340 7922 0e41 895f 6c40 c153 abc0
00000070: 6617 5ec0 cf98 2bbf 939f d1c0 b18d 0c40
-3.4155366 8.631808 10.985591 -0.23680621 3.9870696 1.0081044 -4.9596744 4.2290416
9.370907 8.83791 17.36052 4.0729785 1.1228352 -0.8474807 -1.9502337 11.001811
-0.8060302 -4.040643 3.2712526 -1.0676329 -4.090631 5.560486 10.238871 8.940249
6.62112 8.883416 3.693331 -5.353974 -3.4701781 -0.6703004 -6.5507293 2.1961482

tabnet.encoder.initial_splitter.shared.glu_layers.0.bn.bn.bias f4 [32]
00000000: aebb 8d40 cc01 81c0 f799 673e 3011 0d40
00000010: 56f6 acc0 083a b740 bb59 e1c0 a6d2 fd3d
00000020: f028 7c40 2526 aebf 13d1 ca40 6ca8 8640
00000030: c2bf 9440 3e73 0ec0 8a0a 06be ad80 6340
00000040: fe8b bfc0 7609 b5c0 3ab8 98c0 e9b0 ad40
00000050: f674 35c0 21cf 3140 b4c8 96be 78c2 1dbf
00000060: 5fe2 6240 57f6 cc3f 0ab2 ba40 d4f2 bebf
00000070: eb5b 7ac0 5a63 3bc1 1543 d93f 46e7 c2c0
4.42916 -4.0314693 0.22617327 2.204174 -5.4050703 5.725834 -7.0422034 0.123936936
3.9399986 -1.3605391 6.3380218 4.2080593 4.648408 -2.2257838 -0.13089958 3.5547287
-5.985839 -5.657405 -4.7724886 5.4278455 -2.8352637 2.7782671 -0.2945 -0.6162486
3.5450666 1.6012677 5.8342333 -1.4917855 -3.9118602 -11.711756 1.6973597 -6.0907316

tabnet.encoder.initial_splitter.shared.glu_layers.0.bn.bn.running_mean f4 [32]
00000000: 3862 aa41 b259 dac0 3268 b5c0 dd7c 8cc2
00000010: c32a c641 71ea 17c2 3ccd cf42 dc98 1a42
00000020: c577 9c41 7b7f 3d40 aff6 3042 462f 5842
00000030: 8fe3 d641 d115 c4c0 9f92 a141 ee8a 5642
00000040: 61b3 6742 f4a4 c642 f4ed 8fc1 7a34 adc2
00000050: e465 3cc2 0686 7e40 bfcc c441 e0ba 0fc0
00000060: 2938 5f42 2caa 3241 601c a1c2 2a4c 8ec2
00000070: bb53 20c1 7593 fe3f 475e ef41 ba46 2dc1
21.297958 -6.823449 -5.668969 -70.24387 24.77088 -37.978947 103.90085 38.649277
19.558481 2.9609058 44.240902 54.046165 26.861113 -6.127663 20.196592 53.635674
57.925175 99.322174 -17.991188 -86.60249 -47.099503 3.9769301 24.599974 -2.245781
55.804844 11.166546 -80.55542 -71.14876 -10.020442 1.988875 29.921034 -10.829767

tabnet.encoder.initial_splitter.shared.glu_layers.0.bn.bn.running_var f4 [32]
00000000: 37e2 3446 7587 ea46 0e8b 5447 3061 2647
00000010: 08b2 6146 f6f1 9f46 499b 4f47 a849 a646
00000020: 1dce 7346 c76a 7746 21ae 9146 cabe 3246
00000030: c75e 2946 a33d e446 eda2 ac46 efa5 9647
00000040: ef1e 8046 08f2 0a46 2a06 dd46 290c fa46
00000050: 729c 5a46 2cb3 0447 526e 0d47 5228 db46
00000060: 3f66 3847 9a2d 3046 429a b146 ee43 1d46
00000070: 5592 9745 8dfd b645 2384 4d46 c491 7b47
11576.554 30019.729 54411.055 42593.188 14444.508 20472.98 53147.285 21284.828
15603.528 15834.694 18647.064 11439.697 10839.694 29214.818 22097.463 77131.87
16399.467 8892.508 28291.082 32006.08 13991.111 33971.17 36206.32 28052.16
47206.246 11275.4 22733.129 10064.982 4850.2915 5855.694 13153.034 64401.766

tabnet.encoder.initial_splitter.shared.glu_layers.1.fc.weight f4 [32, 16]
00000000: 9b1c 4140 638f a040 5ebe 6bc1 40ab cdc0
00000010: bb88 e53f 706e 9dc0 6ef4 a33f 5c15 d6c0
00000020: ba0e 8bbf d641 50bf 9ba7 8dbf 11e1 d4c0
00000030: 9668 65c0 342b a03f d42a dd3e 4647 2f41
00000040: 5ac0 f6be 32d5 963f d2c1 26c1 f22e fbc0
00000050: a95b fc40 0a99 90c0 26df b93f bd56 87c0
00000060: 114b 8240 eecb 33be 816e da3e 5115 0cc1
00000070: 8b01 0e41 bf51 8740 da13 58c0 1f13 8f40
00000080: 2f50 ef3f 24e4 2d40 e4b1 20c1 fbab 89c0
00000090: 43e0 21c1 a9b1 6d3c e83f 24bf 9625 d5c0
000000a0: 3efa 5dbf a543 7541 3aed 13c1 a487 ac3f
000000b0: 0cdd 8bc0 b27b c3c0 30e4 06c1 8731 d33f
000000c0: f78f 7cbf c2cc 1140 8438 bfbf fe9a 0041
000000d0: 41de 0e3f 4d57 39c1 dcae 33bf d68b dfbf
000000e0: 6ef4 213f 1ff5 d63d ef63 a9c0 4bf3 2d40
000000f0: b009 6b41 d55e 00c0 e46e 44c0 6d9a 5a41
00000100: d4de 15c0 716f 7cc0 01bc 6cbf 5e59 06c0
00000110: e8c4 3bc0 a77c b440 3f3b 62c0 5f38 3c41
00000120: b894 f540 8ca2 7fbf dea9 0341 d868 f63f
00000130: d5bb 6540 d181 64c0 7fbd 6d40 20b9 cbc0
00000140: 8ae8 8fbe aa26 88c0 5e3e 0141 3fd1 fa40
00000150: ef36 02c1 cbfe 5b3e 66e8 5fc0 d1e8 713f
00000160: 6861 2e40 5227 0ac1 8a6e 8540 bd3a 1741
00000170: 0b4e 3fc0 389e 8ac0 3422 6a40 58ba bec0
00000180: 4726 673f 8bd8 2cc0 9a1e 0dc0 9353 40c1
00000190: 1b6e 7abf 2232 e240 7276 a0c0 9fd0 b2bf
000001a0: f5f9 cbbf 02bc 68c0 2cef fbc0 58b6 1740
000001b0: f13d 2cc1 bc21 62be c480 463f 00d3 2a40
000001c0: 61c5 4dc0 95e8 91bf 3eee ef3f afd9 bb3f
000001d0: 7a7a babf 3f3f a3c0 cf33 55c0 47ee 12c1
000001e0: c83e aebf 5429 5240 8962 21c1 38aa 5e40
000001f0: 886f 2541 8bd8 72bf 949b f63e 0fb8 9140
00000200: f1dd 833f 46d8 8840 3bbb 7c40 7e1a 0e41
00000210: fbea a3c0 917e dabe de3f ee3f 4e0c 2540
00000220: b305 9c41 66ab 69bf 647f 35c0 37e2 0040
00000230: a94b 12bf 157e 9ac0 a912 63c0 167c c13f
00000240: bad4 fe40 4f7d 6fbf 52ab 823f f8e1 e6c0
00000250: ee22 e840 8a8d 2941 6c5a 0a41 4476 0ac0
00000260: f50f 4ec0 0076 c8c0 3eda 59c1 be00 5440
00000270: 7f8c efbf 87cd b340 4580 24bf acb5 953f
00000280: 9560 abbe a521 ffc0 9cf9 7fc0 2d23 bcc0
00000290: 29a4 55c0 399b 133e f1cc 55bf 55d7 ab40
000002a0: d811 a8c0 c124 3bc1 7d94 823f 2e80 8dbf
000002b0: 5633 28c0 b642 42c0 4f66 0241 49d9 6abf
000002c0: 367e e1be 18dc 76c0 cad8 01c0 c957 73c0
000002d0: 17d0 c13f 1ffc c53f a2ab 12be 73ec efc0
000002e0: 3206 6cc0 73bf 2dc1 9b76 7fc1 0fba dcbf
000002f0: dca6 c840 849b 26bf ef60 c740 92bd 573e
00000300: bfab 03c1 d4a7 00c0 376a 03c1 27bc 553f
00000310: b624 2ac1 f79b 3241 cafd 98bf 4c10 0b40
00000320: ebcc da3f 9572 60c0 84aa febe cc24 3f40
00000330: 95f3 a940 b087 3bc1 cfba ee40 7b26 cfc0
00000340: d289 2841 cf41 0141 dc52 1ac0 de70 d0c0
00000350: 17c8 90bf ecf5 0cc1 0644 5540 78b4 60c0
00000360: f1eb dac0 1739 8140 e65a 0a3f 2e81 20c1
00000370: 014c cbc0 bdb3 2341 3d17 dac0 827b 9a40
00000380: d0af cfc0 f642 50bf a8a4 0741 95f2 b940
00000390: 5d0c 1140 5922 72c0 6574 5dc0 1a14 1141
000003a0: c505 16c0 cfc7 0cc1 4caa 2ec0 fdfc 75c0
000003b0: 27c6 963e 49d6 90c0 2128 1b40 c16b 41c1
000003c0: fc0a 42be d324 9f40 fcfb 1841 eaf3 d83e
000003d0: 016b 41c0 4ab8 9940 38a9 8740 6b04 2340
000003e0: 201f 0cbf f03b 4dc0 352b cd40 0ae1 82bf
000003f0: 0592 f7c0 7f9a b340 5f34 1440 5973 13c1
3.017371 5.0175033 -14.733976 -6.4271545 1.7932352 -4.919731 1.2808969 -6.6901073
-1.0863869 -0.8135046 -1.1066774 -6.652474 -3.5845084 1.2513185 0.43196738 10.954901
-0.48193628 1.1783812 -10.422319 -7.8494806 7.886189 -4.5186815 1.4521224 -4.229338
4.0716634 -0.17558262 0.42662433 -8.755204 8.875377 4.228729 -3.3762116 4.471084
1.8696345 2.7170496 -10.04343 -4.3022437 -10.117251 0.0145076895 -0.64160013 -6.660838
-0.86709964 15.329015 -9.245417 1.3478894 -4.3707333 -6.1088495 -8.43071 1.649949
-0.9865717 2.2781224 -1.4939122 8.03784 0.5580788 -11.583814 -0.7018869 -1.746455
0.63263595 0.10495972 -5.293449 2.7179744 14.689865 -2.005788 -3.0692682 13.662702
-2.3417253 -3.9443018 -0.9247437 -2.0992045 -2.9338932 5.6402164 -3.534866 11.763762
7.674404 -0.998574 8.2289715 1.9250746 3.5895894 -3.5704234 3.714691 -6.3663483
-0.281071 -4.2547197 8.077726 7.8380427 -8.1384115 0.21483915 -3.4985595 0.94495875
2.7246952 -8.6346 4.1697435 9.45184 -2.9891384 -4.331814 3.6583376 -5.960247
0.9029278 -2.7007167 -2.2049928 -12.020404 -0.9782426 7.0686197 -5.0144587 -1.3969916
-1.5935656 -3.636475 -7.872946 2.3705044 -10.765122 -0.22083181 0.7754023 2.6691284
-3.215172 -1.1399103 1.8744581 1.4675807 -1.4568627 -5.1014705 -3.3312871 -9.183173
-1.3612909 3.2837725 -10.086556 3.4791393 10.339729 -0.9486167 0.48165572 4.553718
1.0302106 4.2764006 3.9489276 8.881468 -5.122434 -0.42674688 1.8613241 2.578876
19.502783 -0.9127716 -2.8359003 2.013807 -0.571467 -4.827891 -3.548014 1.5115993
7.9634676 -0.9355058 1.0208533 -7.215084 7.254264 10.597055 8.647076 -2.1634684
-3.219724 -6.2644043 -13.615782 3.3125453 -1.8714751 5.618839 -0.64258224 1.1696067
-0.33472124 -7.972857 -3.99961 -5.879294 -3.3381445 0.14414681 -0.8351584 5.3700356
-5.252178 -11.696473 1.0201565 -1.1054742 -2.6281333 -3.0353217 8.149978 -0.917378
-0.44041604 -3.8571835 -2.0288568 -3.802233 1.5141629 1.5467566 -0.14323285 -7.4976134
-3.6878781 -10.859241 -15.966456 -1.724428 6.2703686 -0.6508105 6.2305827 0.21068409
-8.22943 -2.0102434 -8.213431 0.8349022 -10.633963 11.163077 -1.195245 2.1728697
1.7093786 -3.5069935 -0.49739468 2.986621 5.310984 -11.720627 7.460304 -6.4734473
10.533648 8.078567 -2.4113073 -6.5137777 -1.1311063 -8.8100395 3.3322768 -3.511015
-6.8413014 4.038219 0.5404495 -10.031538 -6.353028 10.231381 -6.8153367 4.8275766
-6.4902115 -0.81352174 8.477699 5.810862 2.2663796 -3.7833464 -3.4602292 9.067408
-2.3441021 -8.798781 -2.729144 -3.8435662 0.29448053 -4.526158 2.4243243 -12.088807
-0.18949503 4.973245 9.56152 0.42373592 -3.022156 4.803746 4.2394066 2.5471447
-0.54734993 -3.2067833 6.4115243 -1.0224926 -7.7365746 5.6126094 2.3156965 -9.215661

tabnet.encoder.initial_splitter.shared.glu_layers.1.bn.bn.weight f4 [32]
00000000: ca3c 1641 2f40 eb3f 9805 453e 0c1d 1441
00000010: 09b7 0141 6f35 f3c0 8ad1 db3f 6ad1 b240
00000020: 6073 62bf 528f b93d 2f3b debf cc37 9cc0
00000030: 11ab bcc0 b9d3 eec0 929a 7bc0 45df 72bf
00000040: bc6b e13e 2f08 da3f ddf1 8d3f 84fb 03c0
00000050: 7b08 7c41 83c0 d1c0 4def 243e ff15 12c1
00000060: e027 00be d4b1 b540 e116 fb3f d73a 25c1
00000070: bd68 5b40 fe6e b13e 62fe 59c0 e854 6141
9.389841 1.8378962 0.19240415 9.2570915 8.107186 -7.6002727 1.7173321 5.5880632
-0.884573 0.09060539 -1.7361811 -4.881811 -5.895882 -7.463345 -3.9313092 -0.9487193
0.44027507 1.7033747 1.1089436 -2.0622263 15.75207 -6.55475 0.16106911 -9.13037
-0.12515211 5.6779575 1.9616357 -10.326865 3.4282677 0.34654993 -3.4061513 14.083229

tabnet.encoder.initial_splitter.shared.glu_layers.1.bn.bn.bias f4 [32]
00000000: 28b6 ecbf 4236 b440 c2c7 65bf becf 1441
00000010: 8744 0dc1 557c db3f b335 e73e 8b21 d040
00000020: a7b3 18c0 05e6 eb3f ae5f 51bf 42bf 59c1
00000030: 75f0 303f 2415 cfbf 11f5 0341 0e19 ca40
00000040: 7951 b0c0 4c61 cb40 926e f1c0 c812 dbc0
00000050: 5814 8540 ac46 1dc0 cd4e 14c1 b095 653e
00000060: 19b7 ecc0 7243 93c0 6e3f 05c1 276b a43f
00000070: 44e1 6340 00a1 3241 c3cd 7e40 8616 8840
-1.849309 5.6316233 -0.8975793 9.300718 -8.82923 1.7147318 0.45158157 6.5040946
-2.385965 1.8429571 -0.8178662 -13.609194 0.6911691 -1.6178327 8.247331 6.3155584
-5.5099454 6.355627 -7.5447474 -6.8460426 4.1587334 -2.4574385 -9.269238 0.22420382
-7.397351 -4.601983 -8.327986 1.28452 3.5606241 11.164307 3.9813087 4.2527494

tabnet.encoder.initial_splitter.shared.glu_layers.1.bn.bn.running_mean f4 [32]
00000000: 3eba 0ec2 07ee 00c2 27ed 06c2 0b2b a9c1
00000010: 43fa e742 56e5 b042 259d aac1 7878 56c2
00000020: 1495 9942 c243 d2c2 407b bfc0 0fb2 d2c2
00000030: 52e2 b342 4091 c3c2 e5d7 35c2 4353 5d41
00000040: a159 9442 fad6 8d42 7fdf a542 24d1 4f41
00000050: 0711 d7c2 978e d0c1 87c5 4841 7cc9 9542
00000060: 2cee d2c1 f689 9c42 2521 d9c1 acb1 ce42
00000070: c130 8842 47d6 23c2 f6a5 5342 d397 8f42
-35.681877 -32.23245 -33.731594 -21.146017 115.98879 88.44792 -21.32673 -53.617645
76.79117 -105.13234 -5.983795 -105.34777 89.94203 -97.78369 -45.460835 13.832828
74.17506 70.919876 82.936516 12.98856 -107.53326 -26.069624 12.548224 74.893524
-26.366295 78.269455 -27.141184 103.347015 68.09522 -40.959255 52.91207 71.79653

tabnet.encoder.initial_splitter.shared.glu_layers.1.bn.bn.running_var f4 [32]
00000000: 5ea1 2547 c69b 9046 df14 8346 344e 8846
00000010: f1aa 0f47 a6cc b246 ea10 8b46 cad2 af46
00000020: f6a4 5f46 6659 a047 e412 1246 825a cc47
00000030: ec2f bc45 b442 2b46 0801 2947 118d ad46
00000040: 69f5 0347 2e4d 4e46 e896 bd47 1953 d046
00000050: 07e8 6b47 8a6f 9146 3e1f ad45 2d49 5a47
00000060: 73a0 a646 8704 5e47 86f3 1b46 55dc 0847
00000070: c6ef a046 868d 0447 2452 9e46 c705 2c47
42401.367 18509.887 16778.436 17447.102 36778.94 22886.324 17800.457 22505.395
14313.24 82098.8 9348.723 104629.016 6021.99 10960.676 43265.03 22214.533
33781.41 13203.295 97069.81 26665.549 60392.027 18615.77 5539.9053 55881.176
21328.225 56836.527 9980.881 35036.332 20599.887 33933.523 20265.07 44037.777

tabnet.encoder.initial_splitter.specifics.glu_layers.0.fc.weight f4 [32, 16]
00000000: 45ed b3be 785e 2ac1 1e51 adbf 14e0 0540
00000010: 93da 49c0 7b2d 82bf 8e10 38c0 2e97 b03f
00000020: 762f 953f ac87 7b40 60d9 3640 8f58 3b41
00000030: 63d6 6ec0 173b 8040 90e9 743f 7603 8640
00000040: d478 1c41 79f4 1140 6f08 0cc1 f1b3 1040
00000050: d036 edbf 0126 8140 a845 8540 a5be 99c0
00000060: cf93 9f3f 3d1d a4c0 760b 87c0 4e83 21c0
00000070: 8284 9a40 eeda 1fc1 a0cd 8cbf 9735 ae40
00000080: 2c4e 053f c4ac 5cbf 1491 c33f e71b 4dc0
00000090: f47e 6e3f 4af3 20c1 cdd6 6bc0 26f2 2640
000000a0: 7755 3841 f089 9e3f 709c fbc0 550c 0041
000000b0: 11a9 a13e 8bdd ee40 0f74 21c0 1e61 88c0
000000c0: 755f 76bf 51e7 43c1 40fc 8dc0 0e6a 263f
000000d0: d5cb a7c0 0782 afbf 55a4 e5be 5b56 aec0
000000e0: c326 3f3f 6346 623f 2bc6 d6c0 fc96 b63f
000000f0: 5e2c 27c1 5c81 d340 d6ba 20c0 b2fd 2041
00000100: bf9d 6540 e6e9 8e40 c9f8 6e3e e1fe 603f
00000110: 4a4f 6e41 ae77 cbc0 9b6d 08c1 a2a4 843e
00000120: f647 f340 5340 8e40 f60f cd3f 4f7c f43f
00000130: 4d45 a640 e10e 3bc0 716d b1c0 627c 8cc0
00000140: 39a2 ce40 e369 b240 c637 2ac0 24b3 c1bf
00000150: 2953 13c1 aff6 863f 4a08 1e40 54b8 b7be
00000160: 6fae 99c0 509f 723f 561b a6c0 8255 01bf
00000170: f5fb 0841 099a ddc0 a0aa 963f b827 07c0
00000180: 9b04 99c0 4aec a9c0 b05c 8a40 aec1 c640
00000190: 233e 3bc0 f671 68c0 fb97 e4bf 628a eb3f
000001a0: 976f bcbf 9d9d 3a3f 5a0e 6bbf 5dca ce40
000001b0: 9f5f 93c0 e6f7 8c41 2c68 a140 2a2f b9c0
000001c0: 3147 c73f ce96 7240 f59e a8c0 b26c 223e
000001d0: 9685 cbbf e8d5 66c0 3392 abbe 8c39 63c0
000001e0: 0e62 d3c0 0c05 95bf 3deb dec0 456d 46c1
000001f0: f656 3e40 50e8 1ec1 dea5 8fc0 3959 4940
00000200: c388 76c0 6b27 8e40 ce32 1741 9265 12c1
00000210: ee63 b740 67ea 58be 85e4 3d3f 7169 7d40
00000220: a049 93c0 a8aa 2f40 5a0b a43f 093d bcc0
00000230: e017 673f d2dd 17c0 db22 af40 a08b 16c1
00000240: a3da 1e40 03f0 ed40 ec06 80bf ad22 d4c0
00000250: 4f1d a1bc 24a5 a13f 5c90 bc40 0e0a b340
00000260: 7c8c 0dc0 c9f5 0cc1 f221 8d40 96a0 b2c0
00000270: 76cb 40bd 371e b4bf 4a81 6ec0 f334 55c0
00000280: 3bb7 de3f d900 8940 9729 efc0 decc a43f
00000290: cb93 aac0 b7d8 463f 968e 2540 6e35 0bc0
000002a0: 54af 5f40 42e6 1041 5b21 db3f bf5a c6bf
000002b0: 161c fac0 b3d5 77bf 7862 adc0 38d2 ee3f
000002c0: 9bf9 643f 968c 80c0 a4aa 5cc0 963f 42c0
000002d0: 5626 0ac1 9a36 88c0 94d3 5841 1745 9940
000002e0: 7f7c 15bf d155 62c0 476d a2c0 397c 93c0
000002f0: 6946 00c1 b18b 94be 17ea cbc0 f9af 6440
00000300: ade3 1fc0 d3d5 c6c0 cdd9 6a3f d338 1440
00000310: 95d9 d8c0 fe91 bc3f b3ce 6840 c3f0 93bf
00000320: 2e1d 7bc0 32f8 24c0 3a21 ccc0 aef9 12c0
00000330: 475c ec3f 87dc 3b3e 01ba 3f40 e06e 0840
00000340: 17ca c33f bab6 dcbf e06f 8fc0 a664 c0c0
00000350: ee53 753f afa9 113c 2f88 233f 5cc9 c0bf
00000360: ca8f a3c0 938a 61c0 f3d2 dbbf 9241 90c1
00000370: 1dd4 4f3f e7b2 06c0 e5c4 a63f 7bc5 ca40
00000380: a1ae 39c0 fc69 1ebf f9f5 1b3e 8b1c 1141
00000390: 6fdd db40 8c14 893f 9515 adc0 a13c e240
000003a0: 0bd5 413e 66ac adc0 1d66 b540 6b27 be40
000003b0: 52c8 a2c0 9c39 453f c593 fac0 7eb7 47be
000003c0: 5d3f 1240 db2d 4d40 15ed 93c0 1c5d 8040
000003d0: e60b 63c0 472a 8cbf 30fe 8ebf 8ade edbf
000003e0: c2c8 6740 b7f6 0ac0 5892 7fc0 e86e 3b40
000003f0: acaf eb3e 4ffd 23c0 505e 09c1 b9c2 d440
-0.3514196 -10.648064 -1.354038 2.0918016 -3.1539657 -1.017013 -2.8760104 1.3796136
1.1655109 3.9301558 2.8570175 11.709121 -3.7318351 4.007213 0.9566889 4.1879225
9.779499 2.2805464 -8.752059 2.2609828 -1.8532352 4.035889 4.164753 -4.804522
1.2466983 -5.128569 -4.220149 -2.5236392 4.8286753 -9.99095 -1.1000252 5.4440417
0.52072406 -0.8620112 1.5278649 -3.204828 0.93162465 -10.059397 -3.6849854 2.6085296
11.520865 1.2385845 -7.8628464 8.003011 0.315743 7.464544 -2.5227087 -4.261855
-0.96239406 -12.243974 -4.437042 0.65005577 -5.243632 -1.3711556 -0.44851938 -5.4480414
0.7466852 0.8838865 -6.7116904 1.4264827 -10.448332 6.609541 -2.5114036 10.061937
3.587753 4.466052 0.23337092 0.87888914 14.894358 -6.3583593 -8.526759 0.25906855
7.6025343 4.445352 1.6020496 1.9100436 5.1959596 -2.9227831 -5.5446095 -4.3901834
6.4573026 5.5754256 -2.6596541 -1.5132794 -9.207803 1.0544032 2.469256 -0.3588282
-4.802543 0.9477434 -5.190837 -0.505211 8.561513 -6.925053 1.1770821 -2.1117992
-4.781812 -5.310094 4.3238144 6.2111425 -2.9256675 -3.6319556 -1.7858881 1.8401606
-1.4721555 0.7289675 -0.91818774 6.4622025 -4.6054225 17.621044 5.0439663 -5.7870073
1.5568601 3.7904544 -5.269404 0.15861776 -1.5900142 -3.6068058 -0.3350998 -3.5503874
-6.6057196 -1.1642165 -6.9662156 -12.401677 2.9740577 -9.931717 -4.4889975 3.1460707
-3.8520973 4.442312 9.4499035 -9.149797 5.7309484 -0.21183167 0.7417682 3.9595606
-4.6027374 2.744791 1.2815964 -5.8824506 0.90270805 -2.3729138 5.473005 -9.409088
2.4820945 7.4355483 -1.0002112 -6.629233 -0.019667296 1.2628522 5.892622 5.5949774
-2.2116995 -8.810006 4.4103937 -5.582103 -0.047069035 -1.4071721 -3.7266412 -3.3313568
1.7399668 4.2813535 -7.473827 1.287502 -5.330541 0.7767443 2.5868278 -2.175136
3.4950762 9.056215 1.7119554 -1.5496444 -7.8159285 -0.96810454 -5.41827 1.8657904
0.8944337 -4.0171614 -3.447915 -3.035131 -8.634359 -4.256665 13.551655 4.789684
-0.5839309 -3.5364878 -5.0758395 -4.608914 -8.01719 -0.29012826 -6.3723254 3.5732405
-2.4982712 -6.2136016 0.9173859 2.3159683 -6.7765603 1.4732053 3.637616 -1.155785
-3.923656 -2.5776486 -6.379056 -2.2964892 1.8465661 0.18345843 2.9957278 2.1317673
1.5296048 -1.7243264 -4.4824066 -6.012286 0.9583119 0.008890553 0.63879675 -1.506145
-5.1113024 -3.524083 -1.7173752 -18.032017 0.81183034 -2.1046693 1.3028837 6.3366065
-2.9012835 -0.6188047 0.1523055 9.0694685 6.8707805 1.0709395 -5.4088845 7.069901
0.18928926 -5.4272947 5.668715 5.942312 -5.086953 0.7704103 -7.8305383 -0.1950359
2.2851174 3.2059238 -4.6226907 4.011366 -3.5476012 -1.0950402 -1.1171322 -1.8583539
3.6216283 -2.1713083 -3.993307 2.9286442 0.46032465 -2.5623357 -8.5855255 6.64877

tabnet.encoder.initial_splitter.specifics.glu_layers.0.bn.bn.weight f4 [32]
00000000: 7509 73bf 3a43 93be 1fcb 9240 dc7d ddc0
00000010: ce38 8640 5319 0ac0 ee2f 803f 1b92 7ac0
00000020: 53b6 a1c0 0c06 1e3e cc39 b23f 4082 3ac0
00000030: a990 183e 6de7 afc0 748b de40 2d7a 80c0
00000040: 380d 9940 ac22 8e41 2e35 b43d 4277 cf40
00000050: 0a9d b1c0 bdea e53f 20c5 d2bf dc44 9540
00000060: 067c 5440 a70a 983d 4236 36c0 53c7 9740
00000070: d5ce 68bf 3485 0641 f55a 1b41 339c 6d40
-0.94936305 -0.28762227 4.587295 -6.9216137 4.194434 -2.1577957 1.0014627 -3.9151676
-5.0535064 0.15431994 1.3923888 -2.9141998 0.14898933 -5.497 6.954523 -4.014914
4.7828636 17.76693 0.08799206 6.483308 -5.55042 1.7962261 -1.6466408 4.6646557
3.3200698 0.07423907 -2.8470616 4.7430816 -0.909406 8.40752 9.709706 3.7126586

tabnet.encoder.initial_splitter.specifics.glu_layers.0.bn.bn.bias f4 [32]
00000000: dc30 01c0 84c8 9941 e165 393f a2c5 b0c0
00000010: 6e29 a840 0b20 0bc1 faf8 7f40 efd6 9a40
00000020: 0228 8840 304e f5be a614 5a3e b8a5 63c0
00000030: 23b9 32be 34d9 2041 26a4 9640 8d3e 5bc0
00000040: 3f0c 003f 5a6b 7bbf f4c3 f440 88c8 b73e
00000050: 23fa e23f e8e0 9940 2cfe e63f 9227 e4c0
00000060: 676f 8dc0 5a65 21c1 b8c4 90c0 5f3c dc40
00000070: ae21 12c1 f198 ec3f 27a3 83bf 04fd abc0
-2.0186071 19.222908 0.7242108 -5.524125 5.2550573 -8.695323 3.9995713 4.838737
4.254884 -0.47911215 0.21296939 -3.5569897 -0.17453437 10.053028 4.7075377 -3.4256928
0.50018686 -0.9821068 7.64892 0.3589518 1.7732586 4.8087044 1.8046317 -7.1298304
-4.419849 -10.087244 -4.5240135 6.8823695 -9.133223 1.8484174 -1.0284165 -5.3746357

tabnet.encoder.initial_splitter.specifics.glu_layers.0.bn.bn.running_mean f4 [32]
00000000: 1350 05c2 17d3 5642 12af e7c2 b2ff 4ac2
00000010: 9220 dbc2 d9b3 8542 94ac 56c2 da8c d241
00000020: 12f3 dcc1 ae56 1a42 8aa5 4742 be60 51c1
00000030: aef4 a441 020b 9342 6e9a 0ec2 53b6 2541
00000040: ca06 5e42 fbad a3c2 a433 9842 3e63 7c42
00000050: 69a7 aa41 c039 d5c2 df43 4d41 0ea7 25c3
00000060: bac8 8841 f0ec f9c2 d3e5 b3c2 ebc3 4142
00000070: 97de 34c2 0f01 9fc2 d2ca 64c2 6b52 3641
-33.328197 53.706142 -115.841934 -50.749702 -109.563614 66.851265 -53.668533 26.318775
-27.618687 38.58465 49.91166 -13.086119 20.619473 73.5215 -35.65081 10.357013
55.50663 -81.839806 76.10086 63.096916 21.331743 -106.61279 12.82907 -165.65256
17.098011 -124.96277 -89.948875 48.441326 -45.217373 -79.50207 -57.198067 11.395122

tabnet.encoder.initial_splitter.specifics.glu_layers.0.bn.bn.running_var f4 [32]
00000000: be4c 8e46 8406 df46 7f12 c646 e75f 1c46
00000010: fdb6 d346 eec4 b046 4c5b b646 c77d 2b47
00000020: 40e4 b046 b0a6 ef45 87cb 0746 cb46 1547
00000030: 3292 9f46 035e c046 a954 5546 bbfb fe45
00000040: 8471 df46 1ffc 7c47 7286 9246 683e 2046
00000050: 10c1 4345 e794 bd45 8b33 e645 7133 8746
00000060: e4c3 8946 f523 d045 1733 4b46 c16f 4646
00000070: b4cd 4746 6692 2e47 53de 0846 cab7 cb45
18214.371 28547.258 25353.248 10007.976 27099.494 22626.465 23341.648 43901.777
22642.125 7668.836 8690.882 38214.793 20425.098 24623.006 13653.165 8159.4663
28600.758 64764.12 18755.223 10255.602 3132.0664 6066.613 7366.443 17305.72
17633.945 6660.4946 13004.772 12699.938 12787.426 44690.4 8759.581 6518.9736

tabnet.encoder.initial_splitter.specifics.glu_layers.1.fc.weight f4 [32, 16]
00000000: e7bd 783f 3ffd 1d3f c437 063f 4e1c 5d3f
00000010: b528 61bf b60c 473f 8cb8 573c ef3f 2d3f
00000020: 90f8 17be 1a60 4d3f df9b 993f 5ce2 aa3c
00000030: 29ad 2dbe 420b 243e 81e2 af3e 5d97 2ebe
00000040: 1fa1 36bf abf4 993f 124f 1e3f a929 803e
00000050: 6aab 0e3f f85e 933e 873a d23e 0dc8 32bf
00000060: cf0f 593f 7040 b0bd b4c1 343f 0854 fe3d
00000070: 01c7 b4bc c45b 063e b8af 54be dcdc 49bf
00000080: f9bd 70bd 4233 97bf 986c 9bbe 7ff9 d8be
00000090: c0bc 22be ab78 90be 0b19 16bf a614 dfbc
000000a0: 9d6e 51be 817a 943f 4ea5 19bf 880d d23e
000000b0: 8da3 9abe 15db c63c 5480 46bf 1c17 b93d
000000c0: 94c5 863e ec50 2bbf 1926 be3e c84b dabc
000000d0: 4047 0c3e d01c 1dbf 8053 bebe 6bf5 fa3e
000000e0: ac3c a2be e620 1ebf 0d19 7ebe 41aa eabe
000000f0: e0b1 ce3c f050 4c3e 7be5 543e 4243 b33f
00000100: cb70 5cbf c342 acbe bea3 0bbf 3e0e 353f
00000110: e09e 82bd 1f0e 6a3f e2f9 0cbf 4a07 9fbe
00000120: 2e1d 093f 6725 0ebf 9eea 8d3d 530a da3e
00000130: e3d1 d8be 9db0 a23f 5200 973f f25e f03f
00000140: 6607 043d dc39 45bf f9eb 803e 7a14 c23e
00000150: 9e8f a6bf fa7c 3bbf a673 7c3e ac15 083e
00000160: 383d d93d 44e9 bc3e 9635 663f 0df2 303f
00000170: 7cf9 123f af54 e83e 3f93 2e3f 60eb fabe
00000180: d9ed c63f bc3d d3be 0842 2a3b a4c5 493d
00000190: 07ec 313f b7d1 ebbf 39b3 183e 7af7 943d
000001a0: 9333 cebe 9df4 613d 1537 903f e16d 0e3f
000001b0: 1ad4 aabe 943e c8bd 5717 66bf 0953 0abe
000001c0: 6170 b93e e347 61bf 13e3 cd3c 6b9b c8bf
000001d0: e38e 04bf 012b 5abd d036 323f 7df8 84bf
000001e0: 90ad f73e 39a4 b03d cf4e e1be 834e 4a3e
000001f0: c756 bf3c bbd9 aabf bf25 353f aad7 413f
00000200: bfee a7bd 1088 ffbf 2750 15c1 0139 1e41
00000210: 207c 8440 9a2a a540 860c 4bc0 0927 c5c0
00000220: c2c8 cbc0 7132 183f 7811 9040 bdbd 6bc0
00000230: 9ed9 37c1 e46a dac0 6229 ed40 8039 f03e
00000240: 3a60 26bf 9ff8 27c0 9ea6 22c0 7b1d 3540
00000250: d31e 9abf 14ec cfbd bb67 c1c0 0c16 a53f
00000260: 38c2 5f40 ffc2 4040 4885 de40 8b0f ac40
00000270: bf01 fe3f 0e41 ad40 a1b0 3640 0d91 04c0
00000280: b2fd 323f 5173 23bf 05f9 0f41 746a a1bf
00000290: e3ab d13f 47b4 9ac0 4e80 f43f afdf 24c0
000002a0: a9e8 94c0 517d d340 a3b3 623f ced5 08be
000002b0: d34f febe 490f 71c0 d0c3 163f 4dda b93f
000002c0: 5e8d 9dbf e43f fac0 e6b3 bebe a211 ef40
000002d0: b808 cf40 d2be ea40 2545 d3bf bc66 9fc0
000002e0: f381 0240 9c34 1041 5e64 1241 74f9 0c41
000002f0: f6b3 ee3f 8306 7640 ef59 8b3f c191 1fc0
00000300: 1a5c 50c0 2386 cbbf e5b8 bbbe a363 a440
00000310: fe11 65c0 4b65 0540 4808 e63f 607d 50c0
00000320: d30d 32c0 2df5 9ebf de03 f040 690c 8b3f
00000330: 0489 2540 e76e d13f 5a3a 8840 a28b ab40
00000340: 560f 87bf a0ae 863f e85e d4c0 9608 94c0
00000350: eb21 4dc0 59c0 15bf 461c 24c0 ba14 1dc1
00000360: 87fb 59c0 da93 bc3f 42a8 3c40 526d 43c0
00000370: dae0 e8be d67d cd40 075a 35c0 0344 9f40
00000380: ab69 dabe 5cdc 813f ff47 533e c024 2bc1
00000390: 0ffd 2fc1 13cf 36c1 d52c 79c0 7302 73c0
000003a0: 85f1 80be 9434 3c40 84e4 c6c0 0701 c0bf
000003b0: dc88 77c0 bc4e 82bf e267 99c0 3b3e 9040
000003c0: 3915 893d 42e8 aa40 7aaf e9bf 3f98 e0c0
000003d0: 8c4e 3dc1 73e9 abbf 489b 74c0 9b95 913f
000003e0: a069 efc0 0be9 76c0 9843 8640 9b13 0740
000003f0: c604 92c0 2f70 633f adee d4bf 62dc 1440
0.9716477 0.6171455 0.5242884 0.86371315 -0.8795274 0.7775377 0.013166558 0.6767568
-0.14840913 0.80224764 1.2000693 0.02085989 -0.16960587 0.1601992 0.34352496 -0.17049928
-0.713396 1.2027792 0.618394 0.25031784 0.5573031 0.28783393 0.41060278 -0.69836503
0.84789747 -0.086060405 0.7060807 0.124183714 -0.022067549 0.13120943 -0.20770156 -0.7885263
-0.058774922 -1.1812518 -0.30356288 -0.4237785 -0.15892315 -0.28217062 -0.5863196 -0.027231526
-0.20452352 1.1599885 -0.6001786 0.4102595 -0.30202904 0.024274388 -0.77539563 0.09037611
0.26322615 -0.6692035 0.3713844 -0.026647463 0.13699055 -0.6137209 -0.3717308 0.49015364
-0.31686914 -0.6176895 -0.24814244 -0.45833018 0.025231302 0.1995275 0.20790665 1.40049
-0.8610961 -0.33644685 -0.54546726 0.70724857 -0.06377959 0.914278 -0.5506879 -0.3106025
0.5356015 -0.5552582 0.06929515 0.42586002 -0.4234763 1.2710148 1.1796973 1.8778975
0.03223362 -0.7704141 0.25180033 0.37906247 -1.3012578 -0.73237574 0.24653491 0.13289517
0.1060738 0.36896718 0.89925516 0.6911934 0.5741193 0.45377108 0.6819343 -0.49007702
1.5541335 -0.41258037 0.00259793 0.04926075 0.69500774 -1.8423375 0.14912118 0.07273765
-0.40273723 0.055164922 1.126681 0.5563641 -0.33364946 -0.09777561 -0.89879364 -0.13508238
0.3621855 -0.88000315 0.025132691 -1.567243 -0.5178053 -0.053263668 0.6961489 -1.0388333
0.48374605 0.08625073 -0.4400544 0.19756512 0.023356808 -1.3347696 0.7076072 0.757197
-0.08199834 -1.9963398 -9.332068 9.888917 4.140152 5.1614504 -3.1726394 -6.161015
-6.3682566 0.5945197 4.5021324 -3.6834557 -11.490629 -6.825548 7.4113016 0.4691887
-0.6499058 -2.6245496 -2.5414195 2.8299243 -1.2040657 -0.1015245 -6.0439124 1.2897353
3.4962292 3.0119016 6.9537697 5.3768973 1.9844283 5.4141912 2.8545306 -2.0713532
0.6991836 -0.63847834 8.998296 -1.2610612 1.6380581 -4.8345065 1.9101655 -2.5761526
-4.653401 6.6090474 0.88555354 -0.1336281 -0.49670276 -3.766558 0.58892536 1.4519745
-1.2308767 -7.820299 -0.37246627 7.4709024 6.4698143 7.3357935 -1.6505476 -4.981291
2.0391815 9.012844 9.149504 8.810902 1.864867 3.8441474 1.088682 -2.493271
-3.2556214 -1.590031 -0.366645 5.1371627 -3.5792232 2.0843074 1.7971277 -3.2576523
-2.7820938 -1.2418572 7.500472 1.0863162 2.5864878 1.636197 4.257123 5.360795
-1.0551555 1.0522041 -6.636585 -4.626048 -3.2051952 -0.58496624 -2.5642257 -9.81756
-3.405977 1.4732621 2.9477696 -3.0535474 -0.45484048 6.421611 -2.8336198 4.977052
-0.42658743 1.0145373 0.20632933 -10.696472 -10.999282 -11.425555 -3.8933613 -3.7970245
-0.25184265 2.940709 -6.215395 -1.5000314 -3.8677282 -1.0180278 -4.793931 4.5075965
0.06693501 5.340852 -1.8256676 -7.0185847 -11.8316765 -1.3430618 -3.8219776 1.1373781
-7.4816437 -3.8579738 4.195751 2.1105716 -4.5630827 0.88843054 -1.6635338 2.325951

tabnet.encoder.initial_splitter.specifics.glu_layers.1.bn.bn.weight f4 [32]
00000000: 0000 803f 0000 803f 0000 803f 0000 803f
00000010: 0000 803f 0000 803f 0000 803f 0000 803f
00000020: ad66 db40 5d66 b53b d9c8 9d40 de6f b040
00000030: 86b0 743f 3846 c43d 3f23 85bf 8693 b1c0
00000040: 0000 803f 0000 803f 0000 803f 0000 803f
00000050: 0000 803f 0000 803f 0000 803f 0000 803f
00000060: 89ec 2741 34c6 393f 0bce 16c0 892f bf41
00000070: bad4 fe3e 261a 753d 7668 e740 0fbf 1cc1
1.0 1.0 1.0 1.0 1.0 1.0 1.0 1.0
6.8562837 0.0055358843 4.9307675 5.5136557 0.95581853 0.09583706 -1.0401381 -5.549258
1.0 1.0 1.0 1.0 1.0 1.0 1.0 1.0
10.495248 0.7256806 -2.3563259 23.89821 0.49771672 0.05983939 7.2315016 -9.796645

tabnet.encoder.initial_splitter.specifics.glu_layers.1.bn.bn.bias f4 [32]
00000000: 0000 0000 0000 0000 0000 0000 0000 0000
00000010: 0000 0000 0000 0000 0000 0000 0000 0000
00000020: 5f63 ea40 61f3 d93e 1e30 763f 3111 9241
00000030: 9058 66bf afc4 7abe c0d6 bec0 b768 04c1
00000040: 0000 0000 0000 0000 0000 0000 0000 0000
00000050: 0000 0000 0000 0000 0000 0000 0000 0000
00000060: e85c 1cc0 ce72 01c1 6d52 fcc0 adbd 4b3e
00000070: 018a fbc0 695f 0fc1 7cc6 3a40 e812 0dbf
0.0 0.0 0.0 0.0 0.0 0.0 0.0 0.0
7.3246303 0.42568496 0.9616717 18.258394 -0.89978886 -0.24489091 -5.9637146 -8.275565
0.0 0.0 0.0 0.0 0.0 0.0 0.0 0.0
-2.4431705 -8.0905285 -7.8850617 0.19896574 -7.860596 -8.9607935 2.9183645 -0.55106974

tabnet.encoder.initial_splitter.specifics.glu_layers.1.bn.bn.running_mean f4 [32]
00000000: 982d 4041 4f84 0041 edb0 9dc1 84f2 4640
00000010: 7c67 2241 a205 7940 1676 01c1 4ddf 25c1
00000020: 5de3 0ec2 fa73 9d41 b97a b8c1 4d93 03c3
00000030: 49e3 1b42 33a8 1e42 5d75 ef41 a1b2 8e42
00000040: c945 b73f b415 0a41 76f3 3bc1 bf68 c2c1
00000050: 5f67 51bf 5137 4cc1 ebe5 e540 0c4a 51c0
00000060: 3964 11c3 7f38 fbc2 2705 7b42 b6d2 59c2
00000070: 62e7 c6c1 a97f 55c2 b0f3 1442 8c69 7a41
12.011131 8.032302 -19.71139 3.108552 10.150265 3.8909688 -8.09133 -10.367017
-35.722034 19.68163 -23.059923 -131.5754 38.97196 39.664257 29.932306 71.348885
1.4318172 8.630299 -11.746939 -24.301146 -0.81798357 -12.763505 7.184316 -3.2701445
-145.3915 -125.610344 62.75503 -54.455772 -24.86298 -53.37467 37.237976 15.650768
